backend/models/temporal3d_tplus4.pt (torch, 789262 bytes, 22 tensors)

encoder.0.weight f4 [32, 4, 3, 3, 3]
00000000: 03b4 c8bd 2d05 9fbe 28ec 2ebd ec11 5c3d
00000010: 7988 abbe 89ef eebd 5b77 ddbc a19c 35be
00000020: a4c9 d43c 0e5e 2bbe 81bc 0abf 7374 89be
00000030: b70a c2bd 3de2 7cbe c026 25be 5f2f de3a
00000040: e1c6 7bbe f218 63be 85ee e73d 715e 6abe
00000050: f180 803c cf0d 313e 7bcf a03d 556b 1a3d
00000060: 7dfe 103e 3b6f 5abc 9e04 113e df08 cabd
00000070: c750 84bd 2982 9a3b 49c7 bfbd 34cc c73d
00000080: 8f83 ad3d 85ca b2bd 2efe 35bd 696b 8f3b
00000090: da46 9c3b 1b12 323d 4f14 e83d e889 a03d
000000a0: f9d1 083e 5108 323d 7b8f c33d 4492 113e
000000b0: 1abe 753d 52d7 ecbd 0e09 8d3d 7771 e4bd
000000c0: 38c6 acbd 96ee d1bc 383e 843d 1c57 e0bc
000000d0: 3d56 86bc 8268 87bd 8b51 ad3d 1bdc c03d
000000e0: d660 b53c df3a 733d 9202 1e3e 5723 813d
000000f0: 24e1 a0bd 3f08 aa3d bf9a b5bd 58d9 843d
00000100: ee39 9f3e 1878 19bd 31bd d7bd 0be8 523c
00000110: 48f4 e4bd 61b7 18be 4a16 e23d 1731 50bd
00000120: d9ef 013e 451c 873e ff18 c73d 020d d4bd
00000130: 3f6d 41bd 98eb 2ebe f157 9abc 2220 99bc
00000140: bf9f 17be b3ee 1e3d e660 f53c 0e67 d23c
00000150: cf03 6a3d 83fc 57bd 348c 49bd 276f 0f3d
00000160: 8891 03bc 3383 9a3d 7bac 3e3c f239 d1bd
00000170: 4280 d3bd 5828 173c 32de 2b3d 4286 eabd
00000180: a753 1a3d 2636 8abd 7af5 333d c6b9 e43c
00000190: dcd9 c0bd c70f 8bbb 6b54 8b3d 5a87 953c
000001a0: 866a b13c 200f e03d 01a3 5bbc 7f30 2a3b
000001b0: 3fa5 00bd eacf d8bd 38c1 37be 3d42 22be
000001c0: 7165 3ebe 8d6d 68be c27b ccbd c620 b8bd
000001d0: 374b 10be ef03 8c3d f93c 6a3d 011e 203d
000001e0: f3f6 08be befc 2ebe ffa7 23be 063b 8b3d
000001f0: deb1 12be b196 d43c 4ba0 0d3e c2a8 8b3e
00000200: 2cb3 7b3e f533 2a3e 0101 343e 4ff3 3a3d
00000210: 9459 8b3e 394c 6dbd 9a47 aa3d 0095 c63c
00000220: 1405 ce3d ee0b 82bd 80f8 2fbc 7ca8 c8bb
00000230: 6b83 3f3d 2360 803d 7614 94bd 051e 32bc
00000240: 47c7 333d 77f3 55bc c0cf 713c ac98 fb3d
00000250: 8c34 873d ac7d b23c 08d2 cc3b 04cd d03d
00000260: 5ec1 593d 6818 c0bd 9c25 d8bd f7b9 0bbe
00000270: 7c1d e4bd 6d4e b6bd d1ad 043d 5f7b 81bd
00000280: 9196 053d a9ba b5bc ace2 d23d ccaf 47bc
00000290: f039 b8bc c8f4 063e 7282 593d 1d8b ff3d
000002a0: 53d1 c13d c9f0 023e 2167 fd3d 37a8 cdbd
000002b0: 36b7 09be 8092 42bd 8ee7 8bbd 3dca 193e
000002c0: 78bb e73d 1d43 69bd 8c71 cf3d 3e80 d63d
000002d0: 0910 2b3c 2697 64be c4e9 88be b1a3 733d
000002e0: 450b 69be 45d6 05be 43b9 c6bd 00d7 3f3e
000002f0: 99a0 e73d 054f efbc cce6 ebbd 3c99 97bc
00000300: 8b3c 3e3c b9ff f6bd 5136 22be 5a69 e8bd
00000310: 5bcd f5bd 4400 9ebd 6ecb a53d e6ec 023d
00000320: 72fd ad3d 9a52 8ebd dee3 a2bd 5dc2 603d
00000330: 6e44 1dbd 85b9 c53d 0474 b5bd 53eb fcbc
00000340: e4a5 503c cab0 3a3c 6366 503d a5c5 56bc
00000350: 5c66 683d 70c5 813d 196f 9e3c ed6e bb3d
00000360: 1d2e c93d de96 373c ed30 7d3b e93b a1bd
00000370: dd2a 08bb 5bcc 7b3c ab91 d53d 3e5f fd3d
00000380: ea1d 113e 8667 533d e347 cdbd d387 d03d
00000390: d7e6 90bd e580 d43d c1ba ca3d e23d 433e
000003a0: b869 083e 5213 d9bb a091 c8be f436 fcbe
000003b0: 0e37 cdbe cc88 0dbf bf1d e6be 4f62 9ebe
000003c0: a9d5 e0be 4248 dbbe f368 aebe 8159 0dbd
000003d0: 4d2f 2e3c 160a ea3c f6e4 c83d bd05 2b3d
000003e0: 14a9 54bd f133 86bd 2b5a 2fbd 5809 f4bb
000003f0: ee71 c03d 97c4 0f3d 384e c33a 69fc 9a3d
-0.097999595 -0.31058636 -0.042705685 0.05372803 -0.33502558 -0.116667815 -0.027034452 -0.1773553
0.025975056 -0.16735098 -0.54193884 -0.26846656 -0.094747 -0.24695678 -0.16128063 0.0016951374
-0.24587585 -0.22177485 0.11324791 -0.22887589 0.015686484 0.17290424 0.07852074 0.037700016
0.1415958 -0.0133321835 0.14161918 -0.09864973 -0.064607196 0.0047152233 -0.093641825 0.097557455
0.084723584 -0.08730034 -0.044431858 0.004376818 0.0047691884 0.043474298 0.113319986 0.078388035
0.13361348 0.043464962 0.09548851 0.14215952 0.059995748 -0.115645066 0.06886493 -0.11154454
-0.08436245 -0.025626462 0.0645718 -0.027385287 -0.016398543 -0.0661173 0.08462819 0.09416982
0.022140902 0.059382316 0.15430668 0.06305569 -0.07855442 0.08302354 -0.08867406 0.064867675
0.31098884 -0.037468046 -0.10534132 0.012872706 -0.111794055 -0.14913704 0.110394076 -0.050828066
0.12689151 0.26388755 0.097215645 -0.103540435 -0.047223326 -0.1708206 -0.018840762 -0.01869208
-0.14807032 0.03880186 0.029953431 0.025683906 0.05713254 -0.05273105 -0.049205974 0.035018113
-0.008030303 0.075445555 0.011637802 -0.1021613 -0.103271976 0.009225927 0.04195995 -0.11451389
0.037677433 -0.06748609 0.043935277 0.027920615 -0.094165534 -0.004243824 0.06803211 0.018253017
0.02165724 0.10940385 -0.013405562 0.0025968847 -0.03140759 -0.105865315 -0.17944801 -0.1584558
-0.18593384 -0.2269804 -0.099845424 -0.08990626 -0.14091192 0.06836688 0.057187054 0.039091114
-0.13375454 -0.17088601 -0.15982054 0.06798367 -0.14325663 0.025950762 0.13830678 0.2727719
0.24580067 0.16621383 0.17578508 0.045642193 0.2721678 -0.05793402 0.08314438 0.02424097
0.10059562 -0.06349932 -0.010740399 -0.0061236005 0.04675619 0.062683366 -0.07230465 -0.010871415
0.043891218 -0.013058535 0.014759004 0.12284979 0.066018194 0.02178844 0.0062506236 0.101953536
0.053162925 -0.09379655 -0.105540484 -0.13645159 -0.11138436 -0.08901677 0.032392327 -0.06322359
0.032614294 -0.022183733 0.102971405 -0.012187909 -0.022488564 0.13179314 0.053102918 0.12477706
0.094637536 0.12787165 0.12373186 -0.1004185 -0.13448796 -0.047502995 -0.06831275 0.15018554
0.11315054 -0.05694877 0.10129079 0.10473679 0.010440835 -0.22323284 -0.2674085 0.05948228
-0.22758205 -0.13070019 -0.097033046 0.1873436 0.113099284 -0.029212484 -0.115186304 -0.018505685
0.011611114 -0.12060494 -0.15841033 -0.11348219 -0.12002059 -0.077148944 0.08095442 0.031964205
0.084956065 -0.06949349 -0.079536185 0.05487286 -0.038395338 0.09654526 -0.08860019 -0.03087393
0.012734864 0.011394689 0.050878894 -0.013108646 0.056738243 0.06336486 0.019340085 0.09152017
0.098232485 0.011205403 0.0038633898 -0.07872755 -0.0020777502 0.015368546 0.104281746 0.12371682
0.14171568 0.0516124 -0.10023477 0.101821564 -0.07075279 0.10376147 0.09898902 0.19066575
0.13321579 -0.0066246176 -0.39173603 -0.49260676 -0.40081066 -0.5528686 -0.4494457 -0.30934379
-0.4391301 -0.42828566 -0.34064445 -0.034509186 0.010631395 0.028569262 0.09809296 0.04175352
-0.051919058 -0.06552876 -0.0428106 -0.007447403 0.0939673 0.035099592 0.001490063 0.07567675

encoder.0.bias f4 [32]
00000000: bb1c 95bd f820 33bd 9e3a 383d 4ab3 793d
00000010: 3f20 d43b ea2d 66bd 0c76 d2bb bbec 873c
00000020: 9250 a43c 3dae cc39 9300 633c ad79 033e
00000030: ce4a da3b a0a0 063e fb9b 6e3d c1ab d9bc
00000040: b8f6 203c 1771 3b3d 7309 23be 57ab b73d
00000050: 1d98 9b3d b0bb b3bc e23c 003e 930a 02ba
00000060: 003f 153c 8815 5b3c f771 983d 5ed2 76bd
00000070: bcf7 a6bb 3306 263d 4acd 803d 5efc 41be
-0.072808705 -0.043732613 0.044977777 0.060962 0.0064735706 -0.05619613 -0.0064227637 0.016592374
0.02005795 0.0003903973 0.013855117 0.12839384 0.0066617494 0.13147211 0.058254223 -0.026571156
0.009824447 0.045762148 -0.15921573 0.08968227 0.07597373 -0.021940082 0.12523225 -0.0004960682
0.009109259 0.013371833 0.07443612 -0.060259216 -0.00509545 0.040533256 0.06289156 -0.18943927

encoder.1.weight f4 [32]
00000000: dfdc 723f 3a24 493f 70d7 813f 4a32 7f3f
00000010: fc14 563f 69f6 873f ad7f 5d3f 7b64 423f
00000020: 54bb 363f dcf7 833f a4ae a33f 1bb7 a53f
00000030: 896b 7b3f 4fb9 aa3f 2f14 963f 38ad 4e3f
00000040: 33de 693f d71e 833f f509 923f 8999 5b3f
00000050: 77e4 353f 90df 5c3f 332e 2e3f 18b6 533f
00000060: d3bb 863f 25eb 383f 408c 943f 1f09 693f
00000070: c5e7 5b3f 0699 323f 266d 9c3f 99f3 913f
0.9486827 0.785709 1.0143871 0.9968611 0.8362577 1.0622073 0.8652294 0.7593457
0.7137959 1.0310016 1.2787671 1.2946504 0.9821096 1.3337802 1.172491 0.8073306
0.91354674 1.0243787 1.1409289 0.8578115 0.71051735 0.8627863 0.68039244 0.8269973
1.0526069 0.722338 1.1605301 0.9102954 0.8590053 0.69764745 1.222081 1.1402465

encoder.1.bias f4 [32]
00000000: 4c8c 87be d6a9 ae3c 30ef 88be 04b7 ddbe
00000010: 3aeb 2fbe ba95 89be bbcb 1ebd 9f8c b1be
00000020: 6022 55be afa6 87be c5f4 00be 1cf9 63be
00000030: e0a7 4dbe 9796 c8bd ebd4 ea3d c62a 57be
00000040: c550 c4be facf 29be 2aa3 9b3d ce8e 833c
00000050: 8566 abbc e46d 98be e6be c3be af8f bebe
00000060: ef7b bfbc 0399 92be 1c80 21be 0d52 e7bd
00000070: 8fdf e7bd d6b8 9fbe 2a7c 5abd 0a22 5d3c
-0.26474226 0.021321218 -0.26744986 -0.43303692 -0.17179576 -0.26872045 -0.03876851 -0.34677598
-0.20813894 -0.26494357 -0.12593372 -0.22262996 -0.2008357 -0.09794348 0.11466392 -0.2101241
-0.38342872 -0.16583243 0.075994805 0.016059306 -0.020922909 -0.2977134 -0.3823158 -0.37218997
-0.023374526 -0.28632364 -0.15771526 -0.11294947 -0.11321937 -0.31195706 -0.05334107 0.013496885

encoder.1.running_mean f4 [32]
00000000: a4f5 d9be ad40 48be 572c 08bf 8ac1 16bf
00000010: 9f11 78bf 2aa2 5bbf a91c 94be f76e 77bf
00000020: a8ee 7c3e ddab 46be 211c 59bf 122e fcbf
00000030: cd9e 493e c061 2bbf ba51 04bf 63a8 9cbf
00000040: 48f4 113e adc5 fbbd baa2 a1be 46be 5cbe
00000050: 6e87 8d3d 3cb6 45bf 5c25 a33d da4f ddbf
00000060: 113e eb3e 8d7e 08bf af22 903c 01d0 60bf
00000070: 31c6 91be 3037 f03c 8f3f b3be d6e3 22be
-0.4257022 -0.19555922 -0.5319266 -0.5888907 -0.9690189 -0.8579432 -0.28928116 -0.96653694
0.24700415 -0.19401498 -0.84808546 -1.970156 0.19689484 -0.6694603 -0.51687205 -1.2238888
0.14253342 -0.12293563 -0.31569463 -0.21556959 0.06910597 -0.7723119 0.0796611 -1.7289994
0.4594579 -0.533181 0.017594663 -0.8781739 -0.2847152 0.02932319 -0.3500943 -0.15907225

encoder.1.running_var f4 [32]
00000000: 830f 653f 6de4 3d3e 4f8c ab3f 7af3 8e3e
00000010: 93dc 8d3f a7f0 8f3e 5e81 743e 4a86 9f40
00000020: 1f55 a33e 71e8 e03e 694e 6b40 538b 7b41
00000030: d82f 393e 4d10 7b3f 0644 cf3e 68f5 4440
00000040: db34 c83d 2c40 bd40 0796 f93d 4f46 cc3d
00000050: f28e be3d 3dac 033f e7f0 fc3d 2d50 0841
00000060: b2a5 ff3d 36fa ed3e f823 3e3f c844 033e
00000070: 7a59 c43d be03 df3d 05f2 a33f bd11 463e
0.89476794 0.18544169 1.3402194 0.27920133 1.1082939 0.2811329 0.23877475 4.9851427
0.3190088 0.4392734 3.6766608 15.721515 0.18084657 0.9807175 0.40481585 3.0774784
0.097757064 5.9140835 0.121868186 0.09974348 0.093046084 0.5143469 0.12350636 8.519574
0.12482776 0.46479958 0.74273634 0.12819207 0.09587379 0.10889386 1.2808233 0.19342704

encoder.3.weight f4 [64, 32, 3, 3, 3]
00000000: 2611 9abd c35b 06bd 4f8f 1ebd 846a 85bd
00000010: 3309 ccbc 8df3 b4bd ceab 88bd 69e8 83bd
00000020: 6ff3 0fbd f6d3 af3d 45ef a23d ae99 7f3d
00000030: f753 c93d a239 db3d 7507 c83d eee6 043e
00000040: 93cc b33d 36a0 813d c0a9 89bd f8ca 08bd
00000050: 56aa 5fbd 8bfc 3dbd 4770 93bc 9234 9cbc
00000060: 81f2 6cbd 3a0e 36bd f1c0 9abd 4bfe d2bd
00000070: 914f a1bd 598c 97bd bd75 fbbd 662f 14be
00000080: 58fa d6bd 8bae 7cbd 31da 81bd d29c 97bd
00000090: 932c 433e f132 143e 80c1 103e e08f c83d
000000a0: 52c9 323d 166f ca3d 26a8 f03d 6e9c ba3d
000000b0: 539a 553d 139c 423d 434f c03c 20ce 103c
000000c0: a4f8 67bc f9bd 053d 4652 da3c 006f d3bc
000000d0: bb54 8fbd 2808 86bd 64f1 283d cfeb e93d
000000e0: edcd ae3d 5762 a03d ab91 b53d 6311 cf3d
000000f0: 3900 793d d607 6c3d 6605 dc3d bd35 1cbe
00000100: 3dee 2cbe 48b1 2ebe 874a f3bd 9df6 b7bd
00000110: cb3a 0fbe c668 37be 969e 23be 0f12 edbd
00000120: c580 453d 6e37 023d 6409 3d3d 68d7 b23d
00000130: 4289 ee3c d617 333d aadd ad3d 7260 ca3d
00000140: 068a f03d 36f5 aabd 988b d9bd 355f 0cbe
00000150: 8cfa 92bd c6d4 7dbd e588 e8bd 241f fbbc
00000160: a2d6 89bd e7d3 a4bd 5829 46bd 26f1 d3bd
00000170: d2fb f5bd 5f98 adbc 6af7 9dbd 9788 c7bd
00000180: ea21 e8bb 981f 6cbd ec31 6dbd 81bb 293d
00000190: 8208 a13c 0d16 f83c de03 8b3c ff6e 4e3d
000001a0: 62ef 983d c2df fa3c 4a4c a03c 205b db3c
000001b0: 0d69 cbbd 1af3 0dbe 6ccf 0cbe d06a 0dbe
000001c0: 88cc d4bd 604c 0abe a534 07be 621d a0bd
000001d0: 3d66 e2bd 3a6a febd 1a77 52be 7a5c 52be
000001e0: d20a 13be 7ff6 1cbe eea9 3cbe 4008 1dbe
000001f0: 1360 e1bd c6c0 05be 7042 823b fa23 0c3c
00000200: acba c0bb f097 ea3c c1fc 7cbc cd7a eabb
00000210: 54aa b03c 8268 fe3c 1525 013d da1f 9dbc
00000220: 4158 fcbc 2752 94bd 6786 2f3d 7221 5abd
00000230: 993b 41bd c27c 06bb f68e 83bd 0661 e9bd
00000240: 2083 0d3d 99a9 14bc af65 a4bc f048 673d
00000250: 9301 2e3d b6ce 7b3d 91c8 c13c 1229 753d
00000260: d775 7d3c 98d6 6abb b48b 34bd 17d3 cfbd
00000270: c72c bb3d 8edc 623d fd63 253b 34aa 8e3d
00000280: 4626 2b3c 3d92 6f3b 8113 e5bd 314f c2bd
00000290: 6c1d 27bd 9422 79bd a6eb bdbc dd68 04bd
000002a0: 5aaa 0dbd 63ce e2bc ccce 3bbd 9bc7 7fbd
000002b0: ee8a b6bd 5000 6cbd e5b0 c0bd 9507 6bbd
000002c0: eed9 65bd 440e 5abd 1858 8abd f62b 8fbd
000002d0: c731 8dbd a243 f3bc fbc1 91bd 46ba 75bd
000002e0: e5f0 3bbd 4b4e 73bd 18f4 72bd 7d3d 86bd
000002f0: 03a3 4bbd 4137 853c c99f e73c e681 253d
00000300: 38d8 083d 34ab 2c3b 5ecf 9abc 9531 83bc
00000310: 5f44 c6bc 482e 07bb b6eb 95bd 1ec4 3dbd
00000320: 12dc b2bd 3dd5 35bd 1277 78bd dee6 8bbd
00000330: 5fc7 a9bd cb8a c1bd 10c1 f3bd 4ef8 3fbc
00000340: 999a 143c 2d2f cc3b fa0b 503d c4bf 59bc
00000350: 4f62 3abc 313a 013d a150 bb3a e37f 5e3c
00000360: df9e 453b 5df8 65bd cea8 6abd c878 01bd
00000370: ac89 1cbc c708 58bd 286a d13c b016 c73c
00000380: bcf9 d53c 4d19 693c f3bb 3d3a f8c0 ecbc
00000390: bfc1 e03c 5f30 58bd fb04 54bd 0e4a e73c
000003a0: c962 a53c 3b90 943c ff18 463d 09b8 7a3c
000003b0: aacc 2cbc 28fc 283d 39c7 7d3d 3799 a6bc
000003c0: ef98 833c cb65 c13c 67a5 47bb c918 eebc
000003d0: a271 bdbd eb37 e1bd 4c4c 91bc 549b a2bc
000003e0: ebf3 45bd 4db6 3b3c 8319 0cbc b395 15bd
000003f0: 1355 65bc 31b2 64bd 1cef ccbd 99c6 c73d
-0.07522802 -0.032802355 -0.03871089 -0.06514457 -0.02490673 -0.08835516 -0.06673394 -0.06440813
-0.035144266 0.0858535 0.07955793 0.06240242 0.09830468 0.10704352 0.09767047 0.12978718
0.08779254 0.06329386 -0.0672183 -0.03339669 -0.054605804 -0.046383422 -0.017997874 -0.019068036
-0.057848457 -0.04444716 -0.07556332 -0.10302409 -0.07876504 -0.07399816 -0.12278316 -0.14471206
-0.10496968 -0.061689895 -0.06340445 -0.07402958 0.19059972 0.14472558 0.14136314 0.09793067
0.043649025 0.09884469 0.11750822 0.09111868 0.05214913 0.047512125 0.023475295 0.0088382065
-0.014158402 0.032651875 0.02665056 -0.025809765 -0.06998583 -0.065445244 0.041245833 0.1142193
0.08535371 0.07831257 0.088656746 0.10110738 0.060791228 0.05762466 0.10743217 -0.15254875
-0.16887756 -0.17059815 -0.11879449 -0.089825846 -0.13987271 -0.17911062 -0.15978464 -0.1157571
0.048218507 0.031791143 0.046151534 0.08732492 0.029118184 0.043723904 0.08489545 0.09881677
0.11745076 -0.083475515 -0.106223285 -0.13708194 -0.07176694 -0.061970495 -0.113542356 -0.030654497
-0.06730391 -0.0804823 -0.048379272 -0.1034873 -0.120109215 -0.02119082 -0.07713206 -0.09742849
-0.007084121 -0.057647318 -0.057908937 0.041438583 0.019657377 0.030283952 0.016969617 0.050398823
0.07467534 0.030624274 0.019567627 0.02677685 -0.09932146 -0.13862267 -0.13751 -0.13810277
-0.10390574 -0.13505697 -0.13203676 -0.07818104 -0.11054657 -0.12422605 -0.20553246 -0.2054309
-0.14359596 -0.15328406 -0.18424198 -0.15335178 -0.11004653 -0.13061818 0.003975205 0.008553499
-0.005881628 0.028636903 -0.015441121 -0.0071557523 0.021565594 0.031055693 0.031529505 -0.019180227
-0.030803801 -0.07242232 0.042852785 -0.053254552 -0.047175977 -0.0020521139 -0.06423752 -0.11395459
0.03454888 -0.009073638 -0.020068018 0.056466043 0.04248197 0.06147643 0.023655208 0.05985362
0.01546999 -0.0035833474 -0.044078544 -0.10147684 0.091394 0.05538612 0.00252366 0.069660574
0.010446137 0.003655567 -0.11185361 -0.09487761 -0.040799543 -0.060823992 -0.023183655 -0.032326568
-0.034586288 -0.027686303 -0.045851514 -0.062446218 -0.089132175 -0.057617486 -0.0940874 -0.057380278
-0.056116037 -0.05323626 -0.06755084 -0.06990807 -0.0689426 -0.029695336 -0.07117077 -0.059992097
-0.04588403 -0.059400838 -0.059314817 -0.06554697 -0.049716007 0.016261699 0.028274434 0.040407084
0.033409327 0.0026347162 -0.018897709 -0.016014853 -0.024202524 -0.002062695 -0.07320349 -0.04632961
-0.08733381 -0.044392813 -0.06066043 -0.06831144 -0.0828998 -0.09450301 -0.11902058 -0.011716915
0.009070062 0.0062312097 0.05079267 -0.013290349 -0.011375978 0.031549636 0.0014290997 0.013580295
0.003015451 -0.05614506 -0.05728989 -0.031609327 -0.009554308 -0.052742746 0.025563315 0.02430281
0.02612006 0.014227224 0.00072377844 -0.028900608 0.027436135 -0.052780505 -0.051762562 0.028233554
0.020188706 0.01813518 0.048363682 0.015302666 -0.010546843 0.0412561 0.06195757 -0.02033673
0.016064135 0.023608109 -0.0030463578 -0.029064553 -0.09250189 -0.10996994 -0.017736576 -0.019849457
-0.04832832 0.011457038 -0.008551004 -0.036519717 -0.013997334 -0.055834 -0.10006544 0.09754676

encoder.3.bias f4 [64]
00000000: 9db2 f0bc 7b62 313c 0572 833b 3e81 0b3d
00000010: fe59 803c 4187 283d a562 123c 98ee b43c
00000020: 8bd9 f4bb dafd c6bc a4fc 2d3c 1089 b0bb
00000030: e654 80bc 806e 323d 2083 d73c 3ee0 ffbc
00000040: 8e5b aebc e201 a43c f41d d13c 49a4 b73c
00000050: b1f6 5e3c 4a6d a8bc 4d8b 803c 4feb 3dbd
00000060: bb34 11bd 4c42 08bd de59 6d3c c94a 27ba
00000070: 91da 49bc fac4 18bd 0dcb 0d3d f1e3 1b3d
00000080: d0a3 183d 9aa8 b1bb 0cd4 503c 287f c3bc
00000090: 895b ef3b 6c27 3abc 59f7 60bb ebbd 1abd
000000a0: 7c49 873b e0c8 c73c 5594 303c f8bc 353b
000000b0: 7120 18bc f7c2 55bc 5a9a c83b 3449 9f3c
000000c0: 4bad ee3b 5fe4 fbbb 05dd f9bb 3852 59bc
000000d0: 6cd0 2b3d 6f0c e23c 3b77 a53b db8b 3cbd
000000e0: 5848 923c 1b70 263c 0f8c 243c 1547 f6bc
000000f0: cf8f 5cbd 76df 943a 0a6c a83c 7a3d c9bc
-0.029382044 0.010826702 0.004011395 0.0340588 0.015667912 0.041144613 0.0089346515 0.022086427
-0.007472222 -0.024290968 0.010619316 -0.005387433 -0.015665483 0.043562412 0.026307642 -0.031234857
-0.021283891 0.020020429 0.025526978 0.022417204 0.0136086205 -0.020559926 0.015691424 -0.046366986
-0.03545068 -0.03326635 0.014486758 -0.0006381688 -0.012320177 -0.037297226 0.034617472 0.03805918
0.0372656 -0.00542171 0.012745868 -0.023864344 0.007304613 -0.011361938 -0.0034327118 -0.037778776
0.004128633 0.024387777 0.010777553 0.0027731042 -0.009285078 -0.0130469715 0.0061219158 0.019444086
0.0072838417 -0.007687136 -0.0076252245 -0.013264231 0.041946813 0.02759382 0.005049614 -0.046031814
0.017856762 0.010158564 0.010043158 -0.030063191 -0.053848084 0.00113581 0.02055933 -0.024565447

encoder.4.weight f4 [64]
00000000: 88aa 503f 599c 293f adf0 6c3f 781c 613f
00000010: 3299 743f 6e2e 803f e352 753f d1ab 6b3f
00000020: 3302 353f 94b4 6a3f 1feb 953f 0ae3 7e3f
00000030: d536 703f 7153 913f 9cd8 733f b78b 703f
00000040: e128 403f 570a bd3f 9e1f 313f 9d6e 6d3f
00000050: df8a 593f f33e 163f 8f10 8f3f 4c49 3a3f
00000060: 8752 833f b1f7 543f 6345 623f a864 983f
00000070: e73d 8e3f d79c 793f 61b6 843f 71da 7e3f
00000080: 8657 6f3f f415 303f 6ac8 473f 6871 843f
00000090: 07d8 573f b7ea 873f 9a11 863f a2d0 783f
000000a0: ff72 883f 0389 8e3f 61c0 0e3f 0a38 633f
000000b0: 989f 563f 7167 843f d889 893f ff5f a03f
000000c0: 4435 743f a9ea 593f 0e0e 7d3f 87da 7b3f
000000d0: b03d 643f 24b5 7a3f adde 533f 30ed af3f
000000e0: 6591 313f 8fbf 3f3f 7e06 ae3f b285 303f
000000f0: c085 823f 0482 673f 1ce6 a93f 2ba8 6d3f
0.8151021 0.6625419 0.9255474 0.87934065 0.9554626 1.0014169 0.958296 0.92059046
0.7070648 0.9168179 1.1712378 0.99565184 0.9383367 1.1353589 0.95252395 0.9396319
0.75062376 1.476878 0.6918887 0.9274691 0.84977525 0.586898 1.1176928 0.7276809
1.025956 0.8319045 0.88387126 1.1905718 1.1112641 0.97504944 1.0368158 0.99552065
0.93492925 0.687835 0.7804018 1.0347109 0.84314007 1.0618504 1.0474122 0.9719335
1.0660094 1.1135563 0.55762297 0.88757384 0.8383727 1.0344068 1.0745192 1.2529296
0.95393777 0.8512369 0.9884957 0.9838032 0.8915663 0.9793265 0.8276165 1.3744259
0.6936248 0.7490167 1.3595731 0.68954 1.0197067 0.90432763 1.3273349 0.9283473

encoder.4.bias f4 [64]
00000000: 2860 78be 4f24 07bf 9cbf b2be b0be ebbe
00000010: 7b24 b5be 486d 043e 12e1 a2bd 246e 66be
00000020: 7689 95be cc1d e4bd ae75 95be 5295 cf3d
00000030: 76a9 d4bd 6818 47bc b983 2fbe 6346 b2be
00000040: ad32 02bf 41fd a0be 0fd8 b5be 7a35 d6bd
00000050: abf4 9dbe 489f e8be 3fcd 3d3c 9e1d 09bf
00000060: 9523 b0bd 1647 41be 8d9e 31be 5182 08bc
00000070: 2700 79be bc76 92be e68c a8be 13ed c5bd
00000080: 002b 0bbe e50f efbe ab29 b4be 0996 0fbe
00000090: addf 86be 93cf dfbe 3edd 9bbc 2dd7 abbd
000000a0: de20 aebe 637b a2be 57a2 d2be 4633 e2bd
000000b0: 66cd a9bd 19bb a4be 7c86 79bd 5661 76be
000000c0: 5430 23be b295 9ebe 9027 4bbe 20a0 ef3c
000000d0: 30c2 7dbe ef67 1dbd 9dac c9be 7c02 efbc
000000e0: 35f8 aabe 008b b2be af24 52bd abe4 d7be
000000f0: f676 4fbd 8d25 1fbe ba4c b5be 0cec 29be
-0.2425543 -0.5278978 -0.3491181 -0.4604392 -0.35379395 0.12932312 -0.07953085 -0.22502953
-0.29206437 -0.11138496 -0.29191345 0.101359025 -0.103838846 -0.012151815 -0.17140092 -0.34819326
-0.50858575 -0.31443217 -0.35516402 -0.104594186 -0.3085073 -0.45434022 0.011584579 -0.5356082
-0.08600537 -0.18874773 -0.17345639 -0.008331851 -0.24316464 -0.28606212 -0.32919997 -0.09664359
-0.13590622 -0.46691814 -0.3518804 -0.14022078 -0.26342526 -0.43713054 -0.019026395 -0.08390651
-0.3400945 -0.31734762 -0.4113948 -0.11044936 -0.0829113 -0.32173994 -0.06091927 -0.24060568
-0.15936404 -0.30973583 -0.1983931 0.029251158 -0.24781108 -0.038429197 -0.39389506 -0.02917599
-0.33392492 -0.34871674 -0.051304515 -0.42166647 -0.05065056 -0.15541668 -0.354101 -0.16593951

encoder.4.running_mean f4 [64]
00000000: 2c22 06c0 4bca 9f40 da01 c73f 1223 fdbb
00000010: bd82 f33f badc 0a3f 633a 8b3e 6a53 d5bf
00000020: 5432 8ebe ac05 213f 293d 0140 d785 3bbf
00000030: 4985 a5c0 65a6 b5bf 0a3e 3e40 1d48 3540
00000040: dea7 2b3f 06fa 723f ab5f 43c0 a9b6 0f3e
00000050: a9a0 bebf ad53 98bf 74fd 5abf 01c4 4b3f
00000060: 83e3 2dbc 0cfe aa3d 6035 ef3e e5a7 96be
00000070: fe6d 9340 233e 9b3f 1795 c1bc 7748 80be
00000080: 1d9f 38c0 8566 aabe 71af 9abe b413 463f
00000090: 256b 1540 1f58 bb40 e00b 2ec0 9802 713f
000000a0: 20b8 ac40 6682 5740 d342 25c0 8527 36c0
000000b0: 7d22 e9bf 5443 ae40 ec17 a9be 518a 783f
000000c0: 919e 53c0 4125 9a3e 9d8e 8bc0 d119 48bf
000000d0: 4a60 fd3f db0f 3a40 f2ad 8840 e784 b73d
000000e0: f9a8 4cc0 8077 f7be 6491 4bbf 327f d9bf
000000f0: 77ed 77c0 d409 cfbf 4479 e93e e7e9 9abf
-2.0958357 4.993444 1.554744 -0.007725128 1.9024273 0.5424305 0.27192983 -1.6666081
-0.27772772 0.6289928 2.019358 -0.732511 -5.17252 -1.4191405 2.9725366 2.8325264
0.6705302 0.94912755 -3.052714 0.14034523 -1.489278 -1.1900536 -0.8554299 0.79595953
-0.010613325 0.08349237 0.4672041 -0.29424968 4.607177 1.2128338 -0.023630662 -0.25055286
-2.8847115 -0.3328134 -0.30211976 0.77373815 2.3346646 5.854507 -2.7194748 0.9414458
5.397476 3.367334 -2.5822036 -2.846162 -1.821365 5.445719 -0.33026063 0.97086054
-3.3065531 0.30106547 -4.361159 -0.7816439 1.979501 2.9072177 4.2712336 0.08960896
-3.1978133 -0.4833336 -0.79518723 -1.6991942 -3.8738687 -1.6174874 0.4560033 -1.2102631

encoder.4.running_var f4 [64]
00000000: a13e 4a41 62cc ee41 7e6d 3741 670b cd40
00000010: 178e 2841 f081 5641 ee60 6741 f22f 4441
00000020: 137f ae41 3060 6741 8eb4 e540 9cab 8741
00000030: 227e 5341 0d5a d840 5eac 6341 69d1 1541
00000040: 1c79 ff40 1662 f03f 481a a941 3648 c641
00000050: 9dba da40 46d5 5941 b0fe 2b41 fc31 2241
00000060: dca9 b640 4f61 0441 a013 3e41 9ccc 3b41
00000070: ed43 0841 da97 2941 cac5 3d41 e7cc 0341
00000080: f10d 6e41 c972 3b41 c384 d141 1976 7241
00000090: 7741 8a41 4e0b b441 c7e9 4141 c1b3 1b41
000000a0: feb9 8f41 c4e0 2941 2dd5 2141 f5fa 0841
000000b0: a127 f240 6eae 8e41 1417 0541 b461 b740
000000c0: dce2 8c41 511d e640 4d9b 2141 c6f3 1141
000000d0: 2e89 8141 4d13 1b41 b138 9d41 e413 d13f
000000e0: 070d 8a41 e26c 1741 0d2a c240 bec0 da41
000000f0: 46e4 2741 8464 e140 2692 a140 0162 4741
12.64029 29.849796 11.4642315 6.407642 10.53469 13.406723 14.461164 12.261705
21.812048 14.460983 7.1782904 16.958794 13.218294 6.7609925 14.229582 9.363626
7.983534 1.8779933 21.137833 24.78526 6.83528 13.614569 10.74968 10.137203
5.708235 8.273757 11.879791 11.737453 8.516583 10.599573 11.860788 8.237525
14.878404 11.715524 26.189825 15.153832 17.281965 22.50552 12.119575 9.731385
17.965816 10.617374 10.114545 8.561269 7.5673375 17.83517 8.318134 5.7306767
17.610771 7.1910787 10.100415 9.122015 16.191982 9.692212 19.652681 1.6334195
17.256361 9.464083 6.067633 27.344112 10.493231 7.04352 5.0490904 12.461427

encoder.6.weight f4 [64, 64, 3, 3, 3]
00000000: ecf3 7c3d b0d5 bc3d 951d 9e3d a3bd 043e
00000010: d3f6 f13d 429e ab3d 0a22 013e fde4 c23d
00000020: ea32 793d 7e6b 32bd 6565 2dbd d0cf a3bd
00000030: 9896 e0bc b3ed ceba 3f13 a8bc f3db 82bc
00000040: e9ab 6d3c e79b 7cbd 9862 61bc bade 95bc
00000050: 62f4 1abc b6f9 0cbd 8ad0 6cbc 4227 9dbb
00000060: 620e 5abc 2056 1b3b 6c08 cbba 002a 553b
00000070: 21a4 07bb 8507 7bbc 0388 03bd 0ef9 98bb
00000080: e192 223c 8f33 14bc 5dd2 2dbb 60ca 943a
00000090: ca48 1b3d 3c16 41bc 7b9c 083d 64f9 563c
000000a0: 5ed0 25bd 9299 e53c c56f 683d 2a7a 2c3c
000000b0: eb80 943d ec1d 01bd 5c7d e4bc 402b a5bb
000000c0: f7f6 dabc e737 3a3c e4a2 c1bb dae8 a5bc
000000d0: 1803 fd3b f93b 203c bc55 a53d f91e 953d
000000e0: cba0 113d 8c95 60bd 85ff 2dbe 9db1 57bd
000000f0: abb9 af3c 4abb 183d 8f20 db3c 80e2 8f3d
00000100: ee40 f33d 0f06 933d a4d6 3bbb 3a84 04bd
00000110: 1ef1 423d 2f00 423c 265d e8bc f978 f7ba
00000120: ac82 083d 36d8 993d 269c af3c f9c2 263d
00000130: 5fc7 613d cfdc 583d 6949 9abd a58c 91bd
00000140: 1e30 43bd fcec f9bc f73f 81bc 3178 c4bc
00000150: 16a7 863c f680 bdb9 fed4 cf3c 7636 a0bd
00000160: b8ec 21be c176 c9bd 4647 503d 95e1 2a3d
00000170: e46e a13d f2b7 1b3d 0a20 f23c f084 aa3d
00000180: 94f4 323b f210 e6ba 7e86 d33c 91d5 9a3d
00000190: df54 6d3d 6922 0c3d e0c4 4d3c a14b 8dbd
000001a0: 896c 95bc 9791 c4bd 3e27 2dbe ce53 6fbd
000001b0: f0c7 8b3d 495b 9ebc 9c5a 74bd 3cd6 b43a
000001c0: 5c6c febc 2c3b 6fbd d89b 973d 5103 e13c
000001d0: fdb4 5fbd 72ff 083e f387 8d3d 7ac4 a33c
000001e0: 8e88 613d c93d a63b 89c2 7f3d c99e e73c
000001f0: 19ce 3a3c 2dc0 44bd 95e6 033e d99e ee3d
00000200: c4bf 523d 80bf 09bc 6ba3 0c3d 52ff 85bd
00000210: 63d4 173b 6c3e 05bd adf4 a3bc 2b6b 80bd
00000220: 8067 a5bc 6e60 273c ea0e 6cbc 839d 823c
00000230: a2eb 473d ddd9 173d 2269 4d3d ec6a c3b8
00000240: 7953 b8bd 26eb a3bc 6414 0dbc cca2 55bd
00000250: 4f24 47ba 0777 5b3c 22e6 dfbd 7f1c 14bd
00000260: d6c7 30bd de28 64bd 8286 14bd 51f0 ff3c
00000270: 19db ccbd 78e2 23be 0393 4abc 24ea 59bd
00000280: d918 c2bd b943 82bd f1e2 1abe ab9e efbd
00000290: 5d76 18be c7c1 cabd 6896 cbbd a71b babd
000002a0: 0d60 e3bd 064e 19be 692b 2dbe abe0 db3a
000002b0: 90c9 273d 1de8 633d 87f1 b83b e3ed 0e3c
000002c0: 10a3 ce3c 733c 0cbb 1bef 3bbb 1514 743b
000002d0: d5c6 a2bd 7c77 b1bd 04bc 08be d709 b2bd
000002e0: 5dc7 c0bd 2ba2 f7bd 8d27 92bd 41a5 a3bd
000002f0: 3b98 acbd bc88 10bd 3bee 963c a69b 21bb
00000300: 7093 aabc a668 bcbc ad92 5abc d857 f3bb
00000310: 0eb3 873d 6088 303d f219 f1bd 8949 91bd
00000320: 789e 15be edff 79bd 2f62 1dbd 7937 8abd
00000330: f65c 0cbd c7e5 d8bb be45 93bd a724 e6bd
00000340: 9481 c3bd b0ce f1bd ba17 0ebe 7233 aebd
00000350: aa64 bebd 4a09 16be 6c38 9dbd c0a4 a3bd
00000360: 8aed 113d 97c6 c13c 479e 703d 1bb2 5f3d
00000370: 1cc2 5d3d 1210 4d3d a845 b63d 3992 c53d
00000380: a961 8e3d 7320 64bc c394 6538 9286 4ebd
00000390: c1c1 3bbc cf4d 36bd c62d 50bd cce4 97bc
000003a0: be0f 1ebd f473 7dbd 3846 843d eaa7 4f3d
000003b0: 700f 9b3d 278c 673d e216 a63d 3d5d 7c3d
000003c0: 43a8 913d 396f 903d 3ea9 c13d fc93 66bd
000003d0: 8ee2 3fbd df73 f9bd a2fd d0bd 06e5 bfbd
000003e0: 1bc9 ebbd 4bd5 adbd 9999 52bd 3bc8 b4bd
000003f0: 7507 c9bd c627 b8bd 0027 91bd addf 1abd
0.06175606 0.09220445 0.07720486 0.12962966 0.11814656 0.08379795 0.12610641 0.09516332
0.06083957 -0.043559544 -0.042333025 -0.079986215 -0.027415559 -0.0015787393 -0.02051699 -0.01597402
0.014506319 -0.061672118 -0.013756417 -0.01829468 -0.009457679 -0.03441783 -0.014454016 -0.0047959397
-0.013309093 0.0023702458 -0.0015490181 0.0032526255 -0.0020697194 -0.015321617 -0.032112133 -0.0046683615
0.009922714 -0.009045496 -0.0026523091 0.0011351816 0.037911214 -0.011785086 0.033352356 0.013120983
-0.040481918 0.02802733 0.056747217 0.010527173 0.07251152 -0.031522676 -0.027891807 -0.005040556
-0.02672909 0.011365867 -0.0059093107 -0.020252634 0.007721316 0.009779924 0.08072993 0.07281298
0.035553735 -0.05483012 -0.16992004 -0.05265962 0.021450838 0.037287988 0.026748924 0.07025623
0.11877619 0.0717889 -0.0028661871 -0.032352664 0.04759323 0.011840864 -0.02836473 -0.0018880657
0.033327743 0.07511942 0.021436762 0.040713284 0.055121776 0.052944954 -0.07533533 -0.07106904
-0.04765331 -0.03050851 -0.015777571 -0.023983093 0.016437095 -0.00036144973 0.025370117 -0.078228876
-0.15812957 -0.09837104 0.05084922 0.041719038 0.07882479 0.03801722 0.029556293 0.08326137
0.0027306424 -0.0017552658 0.025820967 0.07560266 0.057942268 0.034212504 0.012559146 -0.06899191
-0.01824023 -0.095980816 -0.16909501 -0.05842953 0.068252444 -0.019330638 -0.059656724 0.0013796757
-0.03105753 -0.05840604 0.07402772 0.027467402 -0.054615963 0.13378695 0.06910696 0.019991148
0.05506187 0.0050732833 0.062441383 0.028273957 0.011401677 -0.048034836 0.12880929 0.116513915
0.051452413 -0.008407474 0.034335535 -0.06542839 0.0023167364 -0.032530233 -0.020014131 -0.06270441
-0.020190954 0.010215862 -0.014407853 0.015944248 0.0488087 0.037073005 0.05014909 -9.31824e-05
-0.09000296 -0.020009588 -0.008610819 -0.05215721 -0.0007596658 0.013395078 -0.10932566 -0.03615999
-0.04315933 -0.055703036 -0.03626109 0.031242521 -0.10002727 -0.1600436 -0.012364152 -0.05320181
-0.094773956 -0.06360573 -0.15125634 -0.117001854 -0.14888902 -0.09900241 -0.09940797 -0.090873055
-0.111023046 -0.1497117 -0.16911091 0.001677533 0.04096371 0.055641282 0.0056440267 0.008723709
0.025224239 -0.0021398335 -0.0028676454 0.0037243415 -0.079480805 -0.08665368 -0.13352972 -0.08693283
-0.094130255 -0.12091478 -0.0713645 -0.07990504 -0.08427473 -0.03528665 0.018424144 -0.0024659424
-0.020822257 -0.022999119 -0.013340634 -0.0074262433 0.06625949 0.043098807 -0.11772527 -0.07094104
-0.14611232 -0.061035085 -0.038423713 -0.06748862 -0.034268342 -0.0066191885 -0.07191037 -0.1123746
-0.095461994 -0.11807001 -0.13876238 -0.08505906 -0.09296544 -0.14651981 -0.07676777 -0.07990408
0.035626926 0.023654265 0.058744695 0.054613214 0.054140195 0.050064154 0.089000046 0.096470304
0.06952221 -0.013923752 5.47364e-05 -0.050421305 -0.011459769 -0.044507798 -0.050824903 -0.018541716
-0.03858923 -0.06187816 0.06458706 0.050697245 0.07571304 0.056530144 0.08109833 0.061612356
0.071121715 0.07052464 0.094561085 -0.056293473 -0.04684692 -0.12180304 -0.102046266 -0.09369855
-0.11512967 -0.08487948 -0.051416013 -0.088272534 -0.098158754 -0.08991961 -0.07087517 -0.03781097

encoder.6.bias f4 [64]
00000000: 16a4 a53b a923 143c f230 0e3c 90e4 413d
00000010: 6e8e 2dbd 4552 873b 79ac aebc 064b ca3c
00000020: ec88 383c 034c ebbc 58b1 c2bc b704 a03b
00000030: f2db 0cbd 0382 bc3a 5ee6 a1bb bd2a 8b3c
00000040: f936 4a3c 7c2c 0d3d f4c8 85bc c288 bf3c
00000050: 29c5 bf3c b018 17bc b8d7 6ebc 9bd0 a53b
00000060: 586c 05bd a98c c5bc e43c 82bc bbd1 94bb
00000070: 39f8 903c dfc2 79bc 9603 d63c d0a6 05bd
00000080: 6004 183c 2fa0 86bc b7c7 823b 4387 b23c
00000090: 7f2c 2439 5426 863c c098 e13c 4903 3abc
000000a0: c30d 853c 1a1a 883c 4a67 6e3a f139 d33c
000000b0: 421a 82bb 1238 6b3d 6b81 5bbc ee56 a73a
000000c0: 55c5 e33b eddb 143a f66a a9bc eb93 b1bc
000000d0: ed73 163d c637 923b 2970 ecbb 4cb9 25bc
000000e0: 5894 2cbb 97fd a0bb 78be 393a 55ff 7cbc
000000f0: 5ae3 943c 98c9 b5bc 1735 5ebc 42f9 1f3d
0.005054961 0.009041705 0.008678662 0.047337115 -0.04237216 0.0041296803 -0.021322476 0.024693977
0.0112631135 -0.028722769 -0.023766205 0.0048833746 -0.034389444 0.0014382008 -0.004940792 0.016988153
0.012342208 0.03446625 -0.016331173 0.02338064 0.023409443 -0.009222195 -0.014577799 0.005060268
-0.032574028 -0.024114924 -0.015898176 -0.0045416034 0.017696487 -0.015244215 0.026124757 -0.032629788
0.009278387 -0.016433803 0.003991093 0.021793013 0.00015656835 0.016375698 0.027538657 -0.011353322
0.016241914 0.016614009 0.0009094371 0.025784465 -0.0039704153 0.05742652 -0.013397555 0.0012766996
0.006951014 0.00056785234 -0.020680886 -0.021676978 0.03673165 0.004462215 -0.007215519 -0.010114979
-0.0026333537 -0.0049130428 0.0007085572 -0.015441735 0.018174816 -0.022190854 -0.013562462 0.03905607

encoder.7.weight f4 [64]
00000000: ac22 703f 7f28 753f 29d9 563f fc9e 783f
00000010: acfb 4d3f 382d 4f3f df31 5b3f 86ff 753f
00000020: 5656 593f 6224 6b3f 36a4 813f 3e15 823f
00000030: f446 8b3f 18df 4d3f 4d66 423f 0a3f 773f
00000040: 7d68 8b3f ffee 693f 357f 5d3f 5191 693f
00000050: 274f 723f 543b 7f3f d0a2 623f 2e3a 673f
00000060: 527d 683f a0ab 753f 1d26 673f 72b5 733f
00000070: db17 703f d412 723f ad74 723f 1fbb 7f3f
00000080: 0662 803f 8b54 613f 9c16 663f 5a22 5d3f
00000090: 31ad 6d3f 7b1d 513f 34ff 5f3f b431 4f3f
000000a0: dfec 803f a146 5f3f f71c 693f 873e 643f
000000b0: 81da 5b3f 09dd 723f 1b0a 863f 4a68 7d3f
000000c0: 26d6 603f 4104 683f 48a8 8c3f 8172 803f
000000d0: 8320 7a3f 593f 4f3f 28dc 623f a1bb 783f
000000e0: 11c5 853f ce15 7e3f 056e 7e3f a42b 473f
000000f0: 22d6 793f daee 793f 7330 833f b7e8 5d3f
0.93802905 0.9576492 0.8392511 0.9711759 0.80462146 0.80928373 0.8562297 0.9609302
0.84897363 0.9185239 1.0128238 1.0162733 1.0881028 0.8041854 0.7593735 0.96580565
1.0891262 0.91380304 0.8652223 0.9123736 0.94652027 0.996999 0.8852968 0.9032315
0.90816224 0.95965004 0.9029253 0.9519874 0.937864 0.9455998 0.94709283 0.998949
1.0029914 0.8801963 0.8987825 0.8638054 0.92842394 0.8168561 0.87498784 0.80935216
1.0072287 0.87217146 0.9105982 0.8915791 0.85880286 0.9486852 1.0471834 0.9898726
0.87826765 0.9063149 1.0988855 1.0034944 0.9770586 0.80956036 0.8861718 0.971613
1.0450765 0.9925202 0.99386626 0.77800965 0.97592366 0.97630084 1.024916 0.8668322

encoder.7.bias f4 [64]
00000000: bbee 43be 8cc1 0abe 7709 6dbe f4d4 3cbe
00000010: 0e0f c9bd 4236 9bbe fe66 bcbe f40e 57bd
00000020: 95d0 61be d753 b8be 7b45 9fbd 443c acbd
00000030: 774b 70be 0cfc 67be 9f21 b8be e97a 0fbe
00000040: 2754 75be 0840 e8bd e646 02be 97b1 b6be
00000050: a7ff 8cbd 14e5 b83b c09d e4bd 37bd 32be
00000060: 5f88 b8bd 8698 b0bd 8b99 f5bd b7dd cfbc
00000070: ca59 27be dcdb b4be 6fe9 77be b2f8 33be
00000080: 7e45 093c 382e 8fbd 7d4c 27be e3e8 60be
00000090: e4be 89be aca7 70be 27de e9bd 2ef6 4abe
000000a0: 28f1 39be 4ad1 47be f321 aebd 835a 60be
000000b0: 2a00 11be ccae b6bb 3ddf 89bc 92d5 72be
000000c0: 11ac 3bbe da36 5ebd 4ab5 90be 23a6 f3bd
000000d0: 62fc 84be c269 8ebe 14f6 05bd bae2 0dbe
000000e0: f3c3 47be 073d 88bd 8304 6abe 180e d8be
000000f0: 7ee6 cebd 4aea a0bd 8706 6dbd 47ab 13be
-0.19134037 -0.13550395 -0.23148142 -0.1844061 -0.098173246 -0.30314833 -0.36797327 -0.052504495
-0.22052224 -0.36001465 -0.07776924 -0.08409932 -0.23466288 -0.22654742 -0.3596315 -0.1401173
-0.23957883 -0.11340338 -0.12722358 -0.35682365 -0.06884699 0.0056425426 -0.11162901 -0.17454992
-0.09010386 -0.086228415 -0.119921766 -0.025374277 -0.16342846 -0.3532399 -0.24210142 -0.17575338
0.008378385 -0.069912374 -0.16337772 -0.21963839 -0.2690345 -0.23501462 -0.11419325 -0.19820473
-0.181584 -0.19513431 -0.08502569 -0.21909527 -0.14160219 -0.0055750366 -0.016830081 -0.23714283
-0.18327357 -0.05425153 -0.28263313 -0.118969224 -0.25973803 -0.27815062 -0.03270538 -0.1385602
-0.19508342 -0.06652265 -0.22853284 -0.42198253 -0.10102557 -0.07857187 -0.057867553 -0.14420806

encoder.7.running_mean f4 [64]
00000000: e2af b3c0 46f4 f5c0 0e33 03c1 4858 91c0
00000010: be43 1fc0 c347 07c0 471e 52c0 1250 a9c0
00000020: 26c1 e5c0 5e49 07c0 d678 05c1 ca84 c3bf
00000030: 93d2 6ac0 8a35 5ec0 c666 eec0 410e 5dc0
00000040: 741a f2bf 07ff 1740 0786 f8c0 f6ef b1c0
00000050: d734 8c3f b287 40c0 c1e0 3ac0 7ea5 8ac0
00000060: 7013 05c1 6339 86c0 cd7f 08c1 c55d 46c0
00000070: cf74 9cc0 6f1f d4c0 2138 41c0 dfd0 e0c0
00000080: b383 1740 c790 72c0 6fff fdc0 5845 82c0
00000090: 4133 36c1 67d8 1bc1 2468 bbc0 d9f8 f8bf
000000a0: 2b9b cfc0 fb92 3fc0 adbc d8c0 3159 3bc0
000000b0: eb3f 12c1 8358 26c0 5b43 80c0 5e01 87c0
000000c0: 0d85 5cc0 1224 b4c0 0f9d 77c0 8716 b7c0
000000d0: 0943 a0c0 d6b4 ebbe be29 06c1 8d86 d2bf
000000e0: 8800 16bf 0a69 04c1 2a56 9ac0 920d a7c0
000000f0: d226 23bf 95a5 8ec0 4932 95c0 f2b9 bec0
-5.61522 -7.6860685 -8.199965 -4.5420265 -2.4885097 -2.113755 -3.283098 -5.291024
-7.1798277 -2.113853 -8.342001 -1.5274899 -3.6691024 -3.4720178 -7.4500456 -3.453995
-1.8914323 2.3749406 -7.7663608 -5.560542 1.0953625 -3.0082822 -2.919968 -4.3327017
-8.3172455 -4.194505 -8.531201 -3.0994732 -4.889259 -6.628837 -3.0190508 -7.025497
2.3674133 -3.7900865 -7.937431 -4.070965 -11.387513 -9.740333 -5.8564625 -1.9450942
-6.4876914 -2.993346 -6.7730317 -2.9273188 -9.140605 -2.5991523 -4.008222 -4.218917
-3.4456208 -5.629403 -3.868961 -5.7215 -5.008183 -0.46036404 -8.385191 -1.6447312
-0.5859456 -8.275644 -4.823018 -5.2204065 -0.6373111 -4.4577127 -4.6623883 -5.9601984

encoder.7.running_var f4 [64]
00000000: b088 ff41 688b 2842 ad4b 7e42 f7f9 3842
00000010: e3e5 8842 5311 f441 6b86 1242 9b6b 2842
00000020: 24fb 7642 9030 7241 f8fc 9e42 2d03 1e42
00000030: 6dc8 2f42 24b7 d441 7fb9 1542 912d 6942
00000040: 2620 c141 f3c9 ec41 a160 9a42 64f7 1d42
00000050: 0836 0c42 88c6 4642 653c 5142 ec6e 7142
00000060: cfaa 4742 5e38 1f42 a960 b842 2897 0042
00000070: b1ae 4342 a634 bf41 3818 3742 fc3a 2042
00000080: 52fe 2242 652d e641 cee7 0c42 80a9 4642
00000090: 2fbd 5b42 8e50 1c42 f161 7242 7afd c441
000000a0: 217c c142 bcf2 ca41 6658 9142 ab5c 0c42
000000b0: 7e69 3542 08f6 a541 22ed 2f42 0ac5 a241
000000c0: 988f 0342 368c 3e42 c9c3 0742 89f1 0042
000000d0: 892e ee41 4d23 d341 9151 b042 e5ac df41
000000e0: 85eb b441 5ff9 9442 18f9 0742 bf1a 0a42
000000f0: eee0 3742 8865 4d42 2687 2f42 5ec3 3642
31.941742 42.13614 63.573902 46.244106 68.449 30.50846 36.631268 42.105083
61.745255 15.136856 79.49408 39.5031 43.94573 26.589424 37.43115 58.2945
24.140697 29.598608 77.18873 39.491592 35.052765 49.69388 52.30898 60.358322
49.916805 39.805046 92.18879 32.147614 48.920597 23.900707 45.77365 40.057602
40.74836 28.772165 35.22637 49.665527 54.93475 39.078667 60.595646 24.623768
96.74244 25.368523 72.67265 35.090496 45.35302 20.745132 43.981575 20.34621
32.89023 47.636925 33.941196 32.235874 29.772722 26.392237 88.15931 27.959421
22.615 74.48705 33.993256 34.52612 45.969658 51.34915 43.88198 45.69079

head.0.weight f4 [64, 64, 6, 1, 1]
00000000: 6438 18be d0b0 0c3c 0fdc fc3d c034 493d
00000010: f67f e2bd e3ab 7c3d 79dc 683b 3b82 683d
00000020: e3f4 703b 53f7 c53c d56a 65bd 343b b2bb
00000030: 2abb 1ebd b390 85bc 57bf 4b3b 8f45 73bd
00000040: 3add 0e3d e7db 59bd 16a2 083d eed4 53bb
00000050: 9656 c1bb 36a2 28bd c6b0 a7bb 98c1 013c
00000060: 3904 26bc fb77 11be c437 03bc 8ab1 69bd
00000070: 8ab8 56bd 5d4f d43c f5b1 b73d 5d9c 0d3d
00000080: 4710 4c3d dbb1 18be a666 2fbd efb1 383c
00000090: beed bbbd a8af 6f3d 181c 1f3e 155c b23c
000000a0: f58b 8ebd 2fe4 c9bc 99ed 133d 252b 763d
000000b0: 1383 cd3a 54a3 1dbd b261 6fbd 4584 89bd
000000c0: e0f3 ac3c e166 c4bd fe87 28bd ec80 0bbd
000000d0: bf72 5f3c 904b 75bc 725f 2ebd 79db 0d3b
000000e0: 9d77 8abd ea5d 3c3d 8291 04bd 0e55 11be
000000f0: 4f2b fd3c 27f4 7fbd 5ec1 943d d09b 173d
00000100: 8803 873c 3f31 193d 76d6 1b3c 0413 1c3c
00000110: 7069 bd3c ea37 debc 605a 92bd ca3d f9bd
00000120: e653 8bbd 68b3 8abd 014f b2bb b6a9 24bd
00000130: e314 aabc cc30 df3d 77cf 093c 270e 4cbc
00000140: 0497 1cbd 0417 11be b93a a0bd 1904 bb3c
00000150: a005 cfbd ebff 913c 2ec8 44bd e407 0e3d
00000160: 290f 02bd 09f1 37bd 6af0 e33d 188a e43d
00000170: c95a aebd 6a4c a3bc 3cbe d7bd 2633 0c3c
00000180: 4af1 a93a 049a 85bd 84b3 16bd b643 7abe
00000190: d604 cb3d 83eb af3d f735 b0bc 6179 b33c
000001a0: cfeb 513d d2e4 acbc 8fd6 b4bc f472 0abe
000001b0: 6912 153e be60 c5bd 8626 17bd 36be 5c3d
000001c0: dba5 fabc 3cdd bb3d 13cd 76bd e687 e7bd
000001d0: b129 73bd cc35 ee3d 5bc8 3c3d 8722 63be
000001e0: 98dd e4bd 7015 e7bc 13c0 45bd 36ed 2e3b
000001f0: bce0 a3bd 8fbe 86bb eb7c 71bc d504 ff3c
00000200: fddb b9bd e103 95bd 667d 1e3d 0e8f 853c
00000210: 4e25 c13d 6069 bb3d 12d9 db3c 7112 febd
00000220: 335d 1d3d 1c82 fb39 9506 69bd b547 abbd
00000230: 5aa1 c3ba abbe c63d 514a 1e3d 20d6 f3bc
00000240: eeec b03b 9a9f aebd 0b77 9f3d 707e 953d
00000250: 5ad6 1b3c 9f0f e83c 83d9 b4bc 4d77 ec3b
00000260: 48bd 6a3d 44d4 05bd 277b 95bd a468 a0bd
00000270: 2c31 b7bc a2ce 8fbd 4989 5b3d 5f49 3abd
00000280: 2c1d bebb c5e2 11be 3661 9d3d 60af ecbb
00000290: 8524 43bd 4c31 5e3d fbc4 e3bc 0ad8 003c
000002a0: 87fc 4e3d 0bf6 f73d 71a3 84bd 552a 2ebc
000002b0: 9734 29be 89ec 03bc ea42 683d cce0 e53c
000002c0: ec18 823d 6974 193e 3102 aebd 88b0 ec3c
000002d0: 1055 32bc e686 54bd db91 17bc fc92 13be
000002e0: 0170 803d b240 7bbd 7aee 113d e4e8 f2bb
000002f0: 2224 0a3d 9f48 753c 5fc6 94bd ca95 ef3c
00000300: 0617 2d3c 390d 81bc 0b4e e33d e111 973d
00000310: e145 4a3e 3894 f5bc f399 2b3d 95e9 11bd
00000320: 5592 08bd e8b2 febc 12bf 323c 5cf7 133d
00000330: d0d9 a2bd 463f 163c 3232 94bc 2b62 463d
00000340: 69db 0bbd 7382 8abd 203d 61bc 3681 99bd
00000350: 63d8 9d3b 0ca8 42bd 1290 4abc 88bb 4f3d
00000360: 2aa1 bb3d ec9d d53b 481d 3cbd 480f 32be
00000370: 36e2 d7bd 9eb0 583d 9a87 87bd fd9b 833c
00000380: 7953 d2bd 34ac 48bb 8a37 8b3c 8209 b03c
00000390: db71 b13d 8e14 5abd e47d cdbd b761 863b
000003a0: ced6 eabc 1fd4 603d e359 063d 38c2 543d
000003b0: c22b dbbd a326 0f3c 83cf ad3d cc41 26bd
000003c0: f679 1bbd 87e3 0fbd 6eba 563b 53da e3bc
000003d0: 7e93 c9bd 7788 74bd 5b3d 043d 71e3 25bd
000003e0: 6c96 083b 60a5 64bc 882b 45bd ff7e 68bc
000003f0: 3c2d 8a3d 2b7c ad3d dde4 14bd ed10 e5bd
-0.14865261 0.008587077 0.1234666 0.049122572 -0.11059563 0.06168736 0.0035531803 0.056764822
0.0036767058 0.024165785 -0.056010086 -0.0054391865 -0.038752712 -0.01630435 0.003108939 -0.059392508
0.034878947 -0.05318823 0.033357702 -0.003232296 -0.0059002144 -0.04117032 -0.0051175086 0.0079196915
-0.010132843 -0.14205925 -0.008008901 -0.05705408 -0.052422084 0.02591675 0.089694895 0.034572948
0.04982021 -0.14911596 -0.042822503 0.011272891 -0.09176205 0.05851713 0.1553806 0.021772424
-0.069602884 -0.02464494 0.036115263 0.06009974 0.0015679322 -0.03848584 -0.05844278 -0.067146815
0.021112382 -0.09589935 -0.041145317 -0.034058496 0.013638197 -0.014971629 -0.042571492 0.0021645708
-0.06761096 0.045988 -0.03236533 -0.14192602 0.03090444 -0.0624887 0.07263444 0.03701383
0.016481176 0.03740048 0.009511581 0.009526018 0.023121566 -0.027126271 -0.07146144 -0.121699885
-0.06803112 -0.067725 -0.005441547 -0.04020091 -0.020761913 0.10897979 0.00841128 -0.012454546
-0.038229957 -0.14168936 -0.078237005 0.022829102 -0.10108495 0.017822227 -0.04804247 0.034675494
-0.03175274 -0.044907603 0.1112984 0.11159152 -0.0851341 -0.019933898 -0.10534331 0.008557117
0.0012965587 -0.06523517 -0.036792293 -0.24439892 0.09913032 0.08589842 -0.021510107 0.021908464
0.051250275 -0.021105204 -0.022074966 -0.13520414 0.14557804 -0.09637593 -0.036901973 0.053892337
-0.030596664 0.091730565 -0.060254168 -0.113052174 -0.059365932 0.11631355 0.04608951 -0.2218114
-0.11175078 -0.028208464 -0.04827888 0.0026691682 -0.08001849 -0.004112072 -0.014739255 0.031130234
-0.090751626 -0.072761305 0.038693808 0.016303565 0.094309434 0.09150958 0.026836906 -0.12405861
0.03841896 0.0004797139 -0.056891043 -0.083632864 -0.0014925406 0.09704336 0.038645092 -0.029765189
0.005399338 -0.08526535 0.077863775 0.07299507 0.009511555 0.028327761 -0.022076374 0.00721637
0.05730942 -0.032673135 -0.0729888 -0.078324586 -0.022362314 -0.07021834 0.053597722 -0.04548013
-0.0058018174 -0.14246662 0.07684557 -0.0072230548 -0.04764225 0.054246232 -0.027803889 0.007864008
0.050533798 0.12107476 -0.064764865 -0.01063021 -0.16523968 -0.008052 0.05670444 0.028061293
0.0635241 0.14985813 -0.08496512 0.02889277 -0.010884538 -0.05188646 -0.009251083 -0.14411539
0.06271363 -0.061340995 0.03562782 -0.0074130166 0.033725865 0.0149709275 -0.07264399 0.02924623
0.010564571 -0.015753375 0.1109887 0.07376457 0.19753219 -0.029977903 0.041894864 -0.03562315
-0.033342678 -0.031091169 0.0109098125 0.036124572 -0.07951701 0.009170359 -0.018090341 0.048433464
-0.034144793 -0.067631625 -0.0137474835 -0.07495348 0.004817055 -0.047523543 -0.012363451 0.050715953
0.09161599 0.00651907 -0.045926362 -0.17388642 -0.10541193 0.05290281 -0.06617661 0.016065592
-0.102698274 -0.003062022 0.016994257 0.021488909 0.08664294 -0.05324226 -0.10033777 0.004101004
-0.02866688 0.054889794 0.032800566 0.051943034 -0.107017055 0.008737239 0.08486845 -0.040590093
-0.037958108 -0.035129096 0.003276493 -0.027814066 -0.09842585 -0.059700456 0.032285076 -0.04050011
0.0020841612 -0.013955444 -0.048137218 -0.0141904345 0.06746909 0.08470949 -0.036351074 -0.11184869

head.0.bias f4 [64]
00000000: 02a0 433d 326e a33d d743 323e a461 b53d
00000010: 0858 093e a1c0 37bd 1ac8 28bd d927 323e
00000020: 7a0a ddbc d214 e13d 7806 e63c 85c7 793d
00000030: 0bc7 bc3c 12a6 3bbc 8de5 1d3d 6bc9 973d
00000040: fea5 573d 07e7 1b3d a988 0d3e 9956 ac3d
00000050: c5c2 103e f8b0 0b3e ee63 ae3d b4ff 253d
00000060: 0c34 d3bc 5dd3 353a 255a 793d 88dc 1e3e
00000070: c57b 513e 64c6 f93b 9a73 3c3c 7fd7 e83d
00000080: d77c c83d 7345 9b3d f2a0 34bd 1004 70bd
00000090: 06b5 813b 3972 a63d 08e3 cfbc 1c02 94bd
000000a0: 49b1 cf3d e00a e4bc a544 043d ba50 073c
000000b0: ddc8 8d3d 2de2 293d ae5f 833d 1f87 733d
000000c0: b370 45bc 98d6 293e 3528 6d3d eed2 ba3c
000000d0: b95a e33d ee3d 153c 1503 afbc a333 d53c
000000e0: 1f55 53bc 7c79 0ebc b035 d93d 6ee0 033d
000000f0: 9584 893c 1a58 d6bc dd96 77bb 57ae 873d
0.047760017 0.079800025 0.17408691 0.08856514 0.13412488 -0.04486144 -0.041206457 0.17398013
-0.026982535 0.10990299 0.028079256 0.060981292 0.02304413 -0.0114531685 0.038548995 0.07411464
0.052648537 0.03806212 0.13821663 0.08414955 0.14136799 0.13641727 0.08515154 0.04052706
-0.025781654 0.00069360976 0.060876984 0.15513813 0.2045737 0.007622527 0.011502171 0.113692276
0.09789436 0.07581606 -0.044098802 -0.058597624 0.0039583473 0.08127255 -0.025376812 -0.07226965
0.10141236 -0.027837217 0.032292027 0.008258993 0.06923077 0.041475464 0.06414734 0.059455033
-0.012050795 0.16585767 0.057899673 0.022805657 0.11101288 0.0091090035 -0.021363774 0.026025599
-0.012898712 -0.008695956 0.10605943 0.032196455 0.016786853 -0.026165057 -0.003777913 0.066250496
