backend/models/temporal3d_tplus8.pt (torch, 822466 bytes, 22 tensors)

encoder.0.weight f4 [32, 4, 3, 3, 3]
0	0x3dba1e05	0.09087757
1	0xbc96edb0	-0.018423885
2	0x3db04ee4	0.08608797
3	0xbd6abfab	-0.057311695
4	0xbd8f1075	-0.06985561
5	0xbd869329	-0.06571037
6	0xbad98e04	-0.001659811
7	0xbb4a84eb	-0.003090198
8	0x3dafaebd	0.085782506
9	0xbb8f281a	-0.004368794
10	0x3d50e16c	0.05099623
11	0x3b81894b	0.003953134
12	0xbd611601	-0.054952625
13	0xbe786777	-0.24258219
14	0xbe86b794	-0.26311934
15	0x3bb63e12	0.0055615986
16	0x3d732e27	0.059370186
17	0xbc9c14de	-0.019052919
18	0x3c0926e7	0.008371091
19	0xba51b166	-0.0007999152
20	0xbe0e8bd0	-0.13920522
21	0xbe11ac2f	-0.14225839
22	0xbe9310c2	-0.28723723
23	0xbea30a90	-0.31843996
24	0xbd14ff37	-0.036376204
25	0xbdba9cc5	-0.09111933
26	0xbe2a3f40	-0.1662569
27	0xbd2696d0	-0.04067117
28	0xbdcdf179	-0.10055823
29	0xbd0cebab	-0.034404438
30	0xbdd75568	-0.10514337
31	0x3d17cd00	0.037060738
32	0xbd91a3a2	-0.071112886
33	0xbd0874dc	-0.03331457
34	0x3d6bb83c	0.057548746
35	0x3c9a3988	0.018826261
36	0xbdb10830	-0.0864414
37	0x3c8e7c85	0.01739336
38	0x3d29c1f7	0.041444745
39	0x3bb4b0d5	0.005514244
40	0xbd3ad432	-0.04561252
41	0x3d1754ce	0.03694611
42	0xbd86b189	-0.06576831
43	0xbc34f559	-0.011044824
44	0x3cd54764	0.026035018
45	0x3d2c95b2	0.042134948
46	0x3d9611e9	0.07327635
47	0x3d566bbd	0.05234884
48	0x3daba92b	0.083818756
49	0x3d5c931f	0.053851243
50	0x3cf549cb	0.029942414
51	0xbd88b1db	-0.06674548
52	0x3d9512f5	0.072790064
53	0x3d827cd3	0.063714646
54	0xbd4c46e0	-0.04987228
55	0xbc383aea	-0.011244515
56	0x3ce49a16	0.027905505
57	0x3d137ae3	0.036005866
58	0xbc493670	-0.012281045
59	0x3dbf575c	0.09342834
60	0xbb8499ae	-0.0040466404
61	0x3a9ce45c	0.0011969912
62	0x3c12b734	0.008954812
63	0xbe047277	-0.1293429
64	0xbd5ca54b	-0.053868573
65	0x3dbe40cb	0.09289702
66	0xbd204816	-0.039131247
67	0x3dd3047f	0.10303592
68	0x3e18a820	0.14907885
69	0xbdd2e047	-0.10296684
70	0x3d3a6222	0.045503743
71	0x3ddc9ce8	0.10772115
72	0xbdd08889	-0.10182292
73	0xbc664ed2	-0.014056878
74	0xbc827440	-0.015924573
75	0xbc6222e2	-0.013802262
76	0x3dabd391	0.083899625
77	0x3d18c25b	0.037294727
78	0xbd9868f3	-0.074418925
79	0x3cb1c89f	0.021702109
80	0xbd60a328	-0.054843098
81	0xbd36cdfd	-0.04463004
82	0x3d716421	0.05893338
83	0x3cc2e093	0.023788726
84	0xbd9219c4	-0.07133821
85	0x3d6b7187	0.057481315
86	0x3d95ce80	0.073147774
87	0xbd5a7902	-0.05333806
88	0xbd49b702	-0.049246795
89	0xbd08fc5f	-0.033443805
90	0xbc3ec6df	-0.011644094
91	0xbda7b4a6	-0.08188753
92	0x3d52b5dc	0.051442966
93	0xbdac43e6	-0.08411388
94	0xbd5d8f2d	-0.05409162
95	0x3dac61f1	0.08417118
96	0x3d3b6eb5	0.045759875
97	0xbc97e84c	-0.018543385
98	0xbd2ac57e	-0.04169225
99	0x3bd8ebcf	0.0066199074
100	0x3db5101e	0.08840965
101	0x3d92db88	0.071707785
102	0xbb36a711	-0.0027870575
103	0x3ce0e416	0.02745251
104	0x3c56aa03	0.013102057
105	0xbcda9032	-0.026680086
106	0xbd5c59b9	-0.053796504
107	0xbb1ed885	-0.0024237942
108	0x3ca60937	0.020268066
109	0x3d8cd410	0.06876385
110	0xbc9302e1	-0.017945709
111	0x3def88a0	0.11695981
112	0x3cf5e271	0.030015202
113	0xbd3c01c7	-0.045900133
114	0xbccd1399	-0.025033759
115	0xbc0ef4ac	-0.0087253265
116	0x3da664c4	0.08124688
117	0x3c097f76	0.008392205
118	0x3dac4848	0.08412224
119	0x3cd8080c	0.026371025
120	0x3e0e0e19	0.13872565
121	0x3d5b4f63	0.053542506
122	0xbdbff1ad	-0.09372268
123	0xbda6f6c5	-0.08152536
124	0xbdf97193	-0.12179866
125	0xbdab5007	-0.083648734
126	0xbdf2d721	-0.11857439
127	0xbe1f3bfc	-0.15550226
128	0xbe1634bf	-0.14668559
129	0xbc59c094	-0.013290543
130	0xbe868828	-0.26275754
131	0xbe04a157	-0.12952171
132	0xbe862db5	-0.26206747
133	0xbe844ecf	-0.25841376
134	0xbe32fcb5	-0.17479213
135	0xbd0ce73a	-0.034400202
136	0x3d8c48e1	0.06849838
137	0xbbc75a2a	-0.0060837464
138	0xbc6dd540	-0.014516175
139	0xbd684900	-0.056710243
140	0xbd7eb018	-0.062179655
141	0x3d09428b	0.033510726
142	0x3c6cded1	0.01445742
143	0x3d98ab7b	0.07454582
144	0x39f60112	0.00046921574
145	0xbd7c0720	-0.061530232
146	0x3d290174	0.04126115
147	0x3c2b61c3	0.01046032
148	0xbd3324bd	-0.04373621
149	0xbbfc242b	-0.0076947412
150	0xbdd5231f	-0.104070894
151	0xbd7d14da	-0.061787464
152	0xbcbf5a5d	-0.023358518
153	0xbd6dc871	-0.058052484
154	0x3d851d08	0.06499678
155	0x3d80bc88	0.062859595
156	0xbd9d8018	-0.076904476
157	0x3d5249dc	0.05133997
158	0x3dd8eda3	0.105922006
159	0x3c883bd0	0.016630083
160	0xbcf54628	-0.02994068
161	0x3cd0dbde	0.025495466
162	0xbda9c1d5	-0.08288924
163	0xbd9247a0	-0.07142568
164	0xbd9a1edf	-0.075254194
165	0xbd69eea7	-0.057112362
166	0x3d8abe5e	0.06774591
167	0x3d457bb6	0.048213683
168	0x3b4e2896	0.0031457297
169	0xbcf14d80	-0.0294559
170	0xbc9ffd85	-0.019530067
171	0x3d13a89e	0.036049478
172	0xbd29b4c3	-0.041432153
173	0x3d56b262	0.052416213
174	0xbd90d49e	-0.070718035
175	0xbc19a62d	-0.009377998
176	0xbcfac7b1	-0.030612798
177	0x3c5db7bc	0.013532575
178	0x3caf13b2	0.021371696
179	0xbd8a1f65	-0.06744269
180	0x3d9cdc23	0.07659175
181	0x3d0aa392	0.0338474
182	0x3c767f46	0.015044993
183	0x3dd7d0c8	0.10537869
184	0xbbf12346	-0.0073589412
185	0xbd05a15b	-0.032624584
186	0x3da5abf5	0.08089439
187	0xbca47fd3	-0.020080483
188	0x3df42dad	0.119227745
189	0x3d05b83a	0.032646395
190	0xbcd1ade2	-0.02559561
191	0x3ac428cb	0.001496577
192	0x3db08633	0.086193465
193	0xbc9b9752	-0.018993054
194	0x3b92739f	0.0044693495
195	0xbd4fc78e	-0.05072742
196	0xbd7f23f0	-0.062290132
197	0x3dc1aeef	0.09457194
198	0xbd5a9afc	-0.05337046
199	0x3d656cd3	0.056011986
200	0xbd52ee16	-0.051496588
201	0x3d8c1d4a	0.06841524
202	0xbc9fef33	-0.019523239
203	0xbcc1227d	-0.023576016
204	0x3c28487e	0.01027119
205	0x3cb8abd4	0.022542872
206	0xbda5ce3b	-0.08095976
207	0xbd4c82a3	-0.049929272
208	0x3c10f65d	0.0088478
209	0xbdaf2b02	-0.08553125
210	0x3d7a1b61	0.061061267
211	0xbddf159d	-0.10892794
212	0xbd85a331	-0.06525267
213	0x3da221bd	0.07916591
214	0xbd9f5c2e	-0.07781254
215	0x3d5369e1	0.051614646
216	0x3dd5455b	0.10413619
217	0x3d362314	0.044467047
218	0xbcf07d59	-0.029356645
219	0xbb038986	-0.0020070984
220	0xbd8a8a4d	-0.0676466
221	0xbd8bddec	-0.068294376
222	0x3cbbe7c1	0.022937657
223	0xbd9a3f1a	-0.07531567
224	0x3d8e8e1a	0.069606975
225	0x3d5ef752	0.05443508
226	0xbc1a7796	-0.009427926
227	0x3d952124	0.07281712
228	0x3d82d84c	0.063889116
229	0x3e1313b8	0.14362991
230	0x3c7848c1	0.015154065
231	0x3daae50a	0.08344467
232	0x3da716eb	0.08158668
233	0x3da181b9	0.07886071
234	0x3d4daec7	0.05021551
235	0x3cb2afe1	0.021812381
236	0xbdf0ab31	-0.11751402
237	0x3d1ee6c7	0.038794305
238	0x3db052ef	0.08609568
239	0xbce1d123	-0.027565544
240	0xbdffc12f	-0.12488019
241	0xbd8f1e67	-0.06988221
242	0xbd7b3488	-0.061329395
243	0xbb77324b	-0.0037719186
244	0xbd807c47	-0.06273704
245	0x3c9ee360	0.01939553
246	0x3d04f25d	0.032457698
247	0xbd660767	-0.056159403
248	0xbcc0570b	-0.023479005
249	0xbcdd3fb5	-0.027007917
250	0xbdad631c	-0.08466169
251	0xbd892a4d	-0.06697521
252	0xbd2d01bd	-0.042237986
253	0x3b6fc0ba	0.003658338
254	0x3d3cddde	0.046110027
255	0xbc73c83b	-0.014879282

encoder.0.bias f4 [32]
0	0xbd05c9ac	-0.032663032
1	0xbda6e25a	-0.08148642
2	0xbd9a4403	-0.075325035
3	0x3d5d9a28	0.054102093
4	0xbe0bccc6	-0.13652334
5	0x3d89337f	0.06699275
6	0xbdac6ce3	-0.08419206
7	0x3da8c82e	0.08241306
8	0x3cda3a29	0.026639061
9	0xbe224192	-0.15845326
10	0x3d149f09	0.03628448
11	0xbcaa667d	-0.020800823
12	0x3d444d66	0.047925375
13	0xbd2c77a8	-0.0421063
14	0x3dbb3042	0.09140064
15	0xbce7ac3f	-0.028280376
16	0xbc68103c	-0.014164027
17	0xbc8b210a	-0.016983528
18	0xbd926836	-0.07148783
19	0xbc283a1d	-0.010267762
20	0x3d96513e	0.073397145
21	0x3d74bd28	0.059750706
22	0xb96df5e7	-0.00022693687
23	0xbd66548d	-0.056232978
24	0x3d880a94	0.066426426
25	0xbdaf2add	-0.085530974
26	0xbb66dc6a	-0.0035226592
27	0xbb3efa34	-0.0029140832
28	0x3c6635b8	0.0140508935
29	0xbd54368a	-0.051809825
30	0xbc121bae	-0.008917732
31	0xbd6ccf32	-0.057814784

encoder.1.weight f4 [32]
0	0x3f815dc8	1.0106745
1	0x3f9648d6	1.1740978
2	0x3f872f28	1.0561266
3	0x3f797fe2	0.9746076
4	0x3f68d571	0.90950686
5	0x3f874efa	1.0570977
6	0x3f92b4e6	1.1461456
7	0x3f6ba295	0.92044955
8	0x3f7a1fbc	0.9770467
9	0x3f778de7	0.967009
10	0x3f723733	0.9461548
11	0x3f5f9641	0.87338644
12	0x3f8e0773	1.1096023
13	0x3f844006	1.0332038
14	0x3f80322c	1.0015311
15	0x3f663aac	0.89933276
16	0x3f75324b	0.95779866
17	0x3f753e38	0.95798063
18	0x3f742377	0.95366615
19	0x3f64f458	0.8943534
20	0x3f6eee2f	0.9333219
21	0x3f86416f	1.0488719
22	0x3f71623d	0.94290525
23	0x3f874df8	1.0570669
24	0x3f85940e	1.0435808
25	0x3f6b6ef3	0.9196617
26	0x3f82e11d	1.0224949
27	0x3f98e5fa	1.1945183
28	0x3f621110	0.88307285
29	0x3f7751ea	0.96609366
30	0x3f89646c	1.0733771
31	0x3f576c3b	0.8414952

encoder.1.bias f4 [32]
0	0xbdec83e1	-0.115485914
1	0xbc7fe7f7	-0.01561927
2	0x3d4b232f	0.0495941
3	0xbdf7fb1c	-0.12108442
4	0xbdcf4134	-0.101198584
5	0xbd4fe462	-0.050754912
6	0x3e46c648	0.19411576
7	0xbe0b5b27	-0.1360899
8	0x3b60fb7c	0.0034329584
9	0xbe0de503	-0.13856892
10	0xbe0d94b6	-0.1382626
11	0xbe1cad48	-0.15300477
12	0x3c76069f	0.015016227
13	0xbd4407b7	-0.04785892
14	0xbd8ed6ea	-0.06974585
15	0xbde03cc1	-0.10949088
16	0xbdc7ed25	-0.097620286
17	0xbc0f290f	-0.0087378165
18	0xbd8c5675	-0.06852428
19	0xbe561bb3	-0.20909004
20	0xbdd2a4fd	-0.10285375
21	0x3c8ae08e	0.01695278
22	0xbe21b233	-0.15790634
23	0xbd91d7aa	-0.07121213
24	0x3cc603a0	0.02417165
25	0xbdd95e09	-0.10613639
26	0xbdef0122	-0.11670138
27	0x3d2e70da	0.042588092
28	0xbe1f5b64	-0.15562207
29	0xbdcb10c6	-0.09915309
30	0x3bbac469	0.0056996834
31	0xbe156a2d	-0.14591284

encoder.1.running_mean f4 [32]
0	0xbea9f44c	-0.33194196
1	0xbede912d	-0.43470135
2	0x3e833d90	0.25632906
3	0xbe4c98a6	-0.19980106
4	0xbe34da42	-0.17661384
5	0xbd03f066	-0.032211684
6	0x3d79438d	0.060855437
7	0xb94d550a	-0.00019582003
8	0xbe0540e2	-0.13013032
9	0x3d28878d	0.041144896
10	0x3db9030e	0.09033786
11	0xbd75d0b3	-0.060013484
12	0xbe397fca	-0.18115154
13	0xbe9108a4	-0.28326905
14	0xbdb07fdd	-0.08618138
15	0xbe5b9afd	-0.21445842
16	0xbeb4f320	-0.3534174
17	0xbc587e0f	-0.013213648
18	0xbd036f05	-0.0320883
19	0xbef9048e	-0.48636287
20	0xbd792ce0	-0.06083381
21	0xbdccd168	-0.100008786
22	0xbd890a3a	-0.06691404
23	0xbe66a3ce	-0.22523424
24	0x3dc672cb	0.09689864
25	0xbe882d59	-0.26597098
26	0xbf37fad2	-0.71867096
27	0x3d0bcc1b	0.034130197
28	0x3e97968a	0.2960704
29	0xbc1ea3d3	-0.009682613
30	0x3d7740ae	0.060364418
31	0xbeba4730	-0.36382437

encoder.1.running_var f4 [32]
0	0x3eac3208	0.3363192
1	0x3e598355	0.21241505
2	0x3cf60f6c	0.03003665
3	0x3f520437	0.8203768
4	0x3eb7445d	0.35794345
5	0x3d4f5cae	0.050625496
6	0x3d463013	0.04838569
7	0x3e02be59	0.12767924
8	0x3e14a8d2	0.14517525
9	0x3f01825b	0.5058953
10	0x3d259ae4	0.04043092
11	0x3e79b151	0.24384047
12	0x3ce3e468	0.027818874
13	0x3d09735e	0.03355729
14	0x3dcd0275	0.10010234
15	0x3ea09614	0.313645
16	0x3f045bee	0.51702774
17	0x3cd9386c	0.026516162
18	0x3d3de856	0.04636415
19	0x3eea75af	0.4579291
20	0x3dbfd113	0.093660496
21	0x3d9fd2b3	0.078038596
22	0x3f13f467	0.57794803
23	0x3ea66e8a	0.3250621
24	0x3dba841a	0.091072276
25	0x3d00ed80	0.031476498
26	0x403547ae	2.8325
27	0x3dd21c11	0.102592595
28	0x3de8fe8a	0.113766745
29	0x3cc649b5	0.024205068
30	0x3f816513	1.010897
31	0x3ed8a5db	0.42314038

encoder.3.weight f4 [64, 32, 3, 3, 3]
0	0xba68702b	-0.0008866812
1	0xbc235bc3	-0.009970608
2	0x3c76877e	0.015046952
3	0x3d4fb875	0.05071302
4	0x3d64ab42	0.055827387
5	0xbb8dce3a	-0.0043275626
6	0x3cfdf5d5	0.03100101
7	0xbc667333	-0.014065552
8	0x3c4cacb9	0.012492352
9	0x3da6bfd4	0.08142057
10	0x3ce7b90a	0.028286476
11	0x3d7f0871	0.06226391
12	0x3da99845	0.08280996
13	0x3dc8b601	0.098003395
14	0x3c8272f3	0.015923953
15	0x3d761621	0.060079698
16	0x3c3494ee	0.011021836
17	0x3d367a7f	0.044550415
18	0x3cdff2e6	0.027337503
19	0x3c427554	0.0118687935
20	0xbd204ba4	-0.039134637
21	0x3d2f9b11	0.042872492
22	0x3b91316d	0.004430941
23	0xbc829f09	-0.015944974
24	0xbc8027d4	-0.015643992
25	0xbc703828	-0.014661826
26	0xbcad5bcc	-0.021161936
27	0xbbca668b	-0.006176775
28	0x3d3ca649	0.04605702
29	0xbd4b6a6d	-0.049662042
30	0xbc7d7b36	-0.01547127
31	0x3d5b76b2	0.053579994
32	0xbd0e3458	-0.034717888
33	0xbb14720b	-0.0022650983
34	0x3c1aa2ac	0.009438198
35	0xbc466ec2	-0.012111368
36	0x3d9d3917	0.07676905
37	0x3e09f23d	0.13471313
38	0x3db28cae	0.08718239
39	0x3e128286	0.14307603
40	0x3de553f9	0.11197657
41	0x3d2e5036	0.042556964
42	0x3df60f81	0.12014676
43	0x3df4528c	0.11929807
44	0x3d32543d	0.043537367
45	0xbdc3e97b	-0.09566017
46	0xbcc577c7	-0.024104966
47	0xbde118c0	-0.10991049
48	0xbd6373eb	-0.05553047
49	0xbd40e314	-0.04709156
50	0xbd701562	-0.058614142
51	0xbdc6ac0a	-0.097007826
52	0xbd99db56	-0.07512538
53	0xbdf80592	-0.121104375
54	0xbd420315	-0.04736622
55	0xbd3161d5	-0.04330619
56	0xbc6b212d	-0.014351171
57	0xbcaaa9a0	-0.020832837
58	0xbd0d788a	-0.034538783
59	0x3c0a9dba	0.0084604565
60	0x3d8eaddf	0.06966757
61	0xbb079585	-0.0020688486
62	0x3c44458a	0.01197947
63	0xbcb86e3c	-0.022513501
64	0xbd6eaefe	-0.058272354
65	0x3d1e4612	0.038641043
66	0xbc387727	-0.011258877
67	0xbc28b134	-0.010296155
68	0x3acb95d6	0.0015532325
69	0x3c728492	0.014802115
70	0x3ca896db	0.020579746
71	0x3bcdc6e0	0.0062798113
72	0xbdab61b3	-0.08368244
73	0xbd1a396c	-0.037652418
74	0xba918fbd	-0.0011105459
75	0xbc366771	-0.011133061
76	0x3c612292	0.013741152
77	0x3c4addc4	0.012381975
78	0x3c95caf0	0.018285245
79	0xbc043e97	-0.008071563
80	0xbb2965be	-0.0025847997
81	0xbcfd3f1a	-0.030913878
82	0xbd2b23e0	-0.04178226
83	0xbd2bf60c	-0.041982695
84	0xbb5688b4	-0.003273529
85	0x3c45106a	0.012027839
86	0xbc1038d2	-0.0088026095
87	0x3cc53f14	0.02407793
88	0xbcd7d512	-0.026346717
89	0x3c9fbd05	0.019499311
90	0x3d9d245d	0.07672951
91	0x3c82f6e9	0.015986877
92	0x3d87c99a	0.06630249
93	0x3d884da3	0.06655433
94	0x3da07c35	0.078361906
95	0x3ca3f7b8	0.020015582
96	0x3d2d848f	0.042362746
97	0x3d6a814c	0.057252213
98	0x3d6e3d0e	0.058163695
99	0xbd82daad	-0.06389365
100	0xbcdcac99	-0.02693777
101	0xbd1f4d14	-0.038891867
102	0xbd409ca6	-0.04702439
103	0xbc59a01e	-0.013282804
104	0xbce71457	-0.028207941
105	0xbd3a7326	-0.04551997
106	0xbc15f87d	-0.0091534825
107	0xbd17d7fd	-0.037071217
108	0xbd932029	-0.071838684
109	0xbcee17d4	-0.029064097
110	0xbc07c62f	-0.008286997
111	0xbd84a2f0	-0.0647639
112	0xbcc2da49	-0.023785727
113	0xbb92c920	-0.0044795424
114	0xbccbcc80	-0.024877787
115	0xbc371ee6	-0.0111768
116	0x3c032ed8	0.008006774
117	0x3d3f67df	0.04672992
118	0x3c2735c9	0.0102056945
119	0x3cbcb1f2	0.02303407
120	0x3d68272e	0.05667799
121	0x3c855e98	0.016280457
122	0x3d3d712a	0.0462505
123	0x3d5c5336	0.053790294
124	0x3c4edaca	0.012625406
125	0x3d568e85	0.05238201
126	0xbd237fea	-0.03991691
127	0xbc79b673	-0.015241253
128	0xbd13a3ce	-0.03604489
129	0xbd51e9e7	-0.051248457
130	0xbc7f7496	-0.015591761
131	0xbbc6f0e2	-0.006071196
132	0xbc323ffa	-0.010879511
133	0xbae376d6	-0.0017354141
134	0xbcd0314f	-0.025414137
135	0xbba199d7	-0.004931669
136	0x3ca0b422	0.019617144
137	0x3b87412d	0.0041276426
138	0xbc4c6ab9	-0.012476617
139	0x3ca9e9ee	0.02074143
140	0xbd0dd733	-0.034629058
141	0xbc58a84d	-0.01322372
142	0xbcb62c87	-0.02223803
143	0xbd0f91b5	-0.035051066
144	0x3c7bb4c8	0.015362926
145	0x3d869d6c	0.065729946
146	0xbd0f0d16	-0.03492459
147	0xbc0ccc0c	-0.00859357
148	0x3d2f657b	0.04282139
149	0x3cafce8c	0.021460794
150	0xbc834f78	-0.016029105
151	0xbce542a2	-0.027985875
152	0xbcd8f41e	-0.026483592
153	0x3d8d2b31	0.06893004
154	0x3d937238	0.0719952
155	0x3cb4739b	0.022027781
156	0x3d9eca7a	0.07753463
157	0x3dd1516f	0.1022061
158	0x3cb835c0	0.022486567
159	0x3d3ea8d0	0.04654771
160	0x3d7644d4	0.060124233
161	0x3c95df05	0.01829482
162	0x3c39026d	0.011292082
163	0xbdaa67a1	-0.08320547
164	0xbd6538d9	-0.055962417
165	0x3cd4b0e8	0.025963262
166	0xbd809c37	-0.062797956
167	0xbca3c0de	-0.019989427
168	0x3cff94f9	0.031198965
169	0x3c221a7f	0.0098940125
170	0x3d445a2a	0.04793755
171	0x3ddb461e	0.10706733
172	0xbbcbe5f1	-0.0062224795
173	0xbd458134	-0.04821892
174	0x3d3efbb6	0.04662677
175	0xbc65c481	-0.014023901
176	0xbcc0231e	-0.023454245
177	0x3d864e85	0.06557945
178	0x3d9556b1	0.07291926
179	0x3c8bbda8	0.017058209
180	0x3c9cdba6	0.019147705
181	0xbd7c6a7b	-0.061624985
182	0xbc75ad34	-0.014994908
183	0x3d1a1183	0.037614357
184	0x3c4feff6	0.0126914885
185	0x3cb1cc68	0.021703914
186	0x3d402569	0.046910677
187	0xbc53f0fe	-0.012935875
188	0xbcc6b77f	-0.02425742
189	0x3cfd47f2	0.030918095
190	0xbcaeaa6b	-0.021321496
191	0xbc65db18	-0.014029287
192	0x3cbdfcbb	0.0231918
193	0x3cfcd00e	0.030860927
194	0xbd5fe846	-0.054664873
195	0xbccbac6d	-0.024862492
196	0x3d27923f	0.040910956
197	0xbd609528	-0.054829746
198	0xbd42aa56	-0.047525726
199	0x3c831724	0.016002245
200	0xbc60e846	-0.013727253
201	0xbd22b250	-0.039720833
202	0xbd3277a1	-0.04357112
203	0xbd70e49d	-0.058811773
204	0xbd7085bf	-0.0587213
205	0xbd43449e	-0.04767286
206	0xbd9afb49	-0.0756746
207	0x3d48592d	0.04891317
208	0x3cab26db	0.020892551
209	0x3d02d8ef	0.031945165
210	0x3cc55024	0.024086066
211	0x3c32eee8	0.0109212175
212	0x3caf75a5	0.021418402
213	0xbc4e3c8f	-0.0125876805
214	0xbbaf0dc6	-0.005342218
215	0xba08335e	-0.00051956426
216	0xbd47b322	-0.04875482
217	0xbb0f67e7	-0.0021882
218	0x3d36f85e	0.044670455
219	0x3bc2da6d	0.0059464485
220	0x3c7c3c21	0.015395195
221	0x3d825020	0.06362939
222	0xbc46cc06	-0.012133604
223	0x3cdcad5b	0.026938131
224	0xbd09de94	-0.033659533
225	0xbd376e74	-0.04478307
226	0x3c427cc6	0.011870569
227	0x3c6745db	0.014115776
228	0xbcbd2391	-0.023088248
229	0xb6d9332b	-6.4730607e-06
230	0x3d5b7c4a	0.05358533
231	0xbd78085f	-0.06055486
232	0x3bbcbe99	0.0057600257
233	0x3d055e53	0.032560658
234	0xbd3feb51	-0.046855275
235	0xbd14c7ca	-0.036323346
236	0xbc9e0139	-0.019287692
237	0x3c0d0563	0.008607241
238	0xbcb5bba6	-0.022184204
239	0x3ca51455	0.020151297
240	0xbc649701	-0.013952018
241	0x3d1a645a	0.03769336
242	0xbc84ecf6	-0.016226273
243	0xbd15bda5	-0.036557812
244	0xbc36e779	-0.011163586
245	0xbd6783d5	-0.05652221
246	0xbd23064e	-0.039800934
247	0xbd33a13f	-0.043854948
248	0xbd4d5aa1	-0.05013526
249	0xbd1c6af3	-0.038187932
250	0xbbeedfb7	-0.0072898525
251	0xbd4b4c3a	-0.049633242
252	0x3b92ba19	0.004477751
253	0xbc190a60	-0.0093408525
254	0x3ce0402b	0.027374348
255	0x3d2adf02	0.041716583

encoder.3.bias f4 [64]
0	0xbc8b7f92	-0.017028604
1	0x3c402751	0.011728124
2	0x3c7e19dc	0.015509095
3	0xbc074cab	-0.008258025
4	0xbc9ee2db	-0.019395282
5	0xbcd79afe	-0.026319023
6	0xbcbe9636	-0.023264986
7	0xbce7fb55	-0.028318087
8	0xbc441a81	-0.01196921
9	0xbd1647cd	-0.03668957
10	0xbd23e0fc	-0.040009484
11	0x3d03a4be	0.032139532
12	0xbcc90889	-0.024540203
13	0x3a56da6f	0.0008196001
14	0xbc985e96	-0.01859979
15	0x3c9e31a7	0.019310785
16	0xbccb8071	-0.02484152
17	0x3d106950	0.035256684
18	0xbcd43b0f	-0.025907068
19	0x3d13a954	0.036050156
20	0x3c8f75b6	0.017512184
21	0x3a620811	0.0008622418
22	0x3cd8ccfa	0.026464928
23	0xbc7fea65	-0.015619849
24	0x3d3400b0	0.04394597
25	0xbd5e0956	-0.054208122
26	0xbc1b2839	-0.009470039
27	0xbc75caf7	-0.015002004
28	0x3cdc9cec	0.026930295
29	0xbd1bd899	-0.03804836
30	0xbd062bc2	-0.032756574
31	0xb9f96e58	-0.00047575193
32	0x3c79e721	0.015252859
33	0x3b875f19	0.0041312096
34	0x3ca8e604	0.020617492
35	0xbc34dc11	-0.011038796
36	0x3cf4ea79	0.029896962
37	0x3ccbab98	0.024862096
38	0xbd244ebc	-0.04011415
39	0xbcbd9998	-0.023144528
40	0x3a4ec37d	0.00078874064
41	0x3d289935	0.041161735
42	0xbb567206	-0.0032721772
43	0x3c97847f	0.018495796
44	0x3bb5d5ff	0.005549192
45	0xbb288436	-0.002571357
46	0x3b9494e8	0.0045343526
47	0x3cf2c018	0.029632613
48	0x3cae0691	0.021243365
49	0x3d08e55c	0.03342186
50	0xbcdd91b5	-0.027047018
51	0xbca5bdd1	-0.020232113
52	0x3ad72219	0.001641336
53	0xbcaeff31	-0.02136192
54	0xbb2df318	-0.00265426
55	0x3c73e3d7	0.014885864
56	0xbc0eba33	-0.008711386
57	0xbc54b766	-0.012983179
58	0xbbd5d3b4	-0.006525481
59	0x3c81671a	0.015796233
60	0x3d1a0c34	0.037609294
61	0x3d339162	0.04383982
62	0x3c2abf5a	0.010421598
63	0xbc61fd2d	-0.013793272

encoder.4.weight f4 [64]
0	0x3f80ed91	1.00725
1	0x3f824faa	1.0180562
2	0x3f70747e	0.9392775
3	0x3f5e258f	0.8677606
4	0x3f8793f1	1.0592023
5	0x3f69256c	0.91072726
6	0x3f709eae	0.93992126
7	0x3f612d07	0.8795933
8	0x3f69c0da	0.91309893
9	0x3f838fec	1.0278296
10	0x3f854ce3	1.0414089
11	0x3f81f780	1.0153656
12	0x3f8b5391	1.0884877
13	0x3f67eaf9	0.90592915
14	0x3f847847	1.0349206
15	0x3f88502e	1.0649469
16	0x3f795af2	0.97404397
17	0x3f81d041	1.0141679
18	0x3f842319	1.0323211
19	0x3f7db920	0.99110603
20	0x3f8990b4	1.0747285
21	0x3f7320c9	0.949719
22	0x3f6a2b23	0.9147207
23	0x3f678ee2	0.90452397
24	0x3f88f505	1.0699774
25	0x3f866093	1.0498222
26	0x3f77f530	0.968585
27	0x3f7ff529	0.9998346
28	0x3f7b1e50	0.9809313
29	0x3f6b9180	0.9201889
30	0x3f6a9303	0.9163057
31	0x3f83ee79	1.0307151
32	0x3f80eec5	1.0072867
33	0x3f73309f	0.94996065
34	0x3f5f81b0	0.8730726
35	0x3f803149	1.0015041
36	0x3f778180	0.96681976
37	0x3f8527f1	1.0402814
38	0x3f85508a	1.0415204
39	0x3f7a2691	0.977151
40	0x3f76dd22	0.9643117
41	0x3f8c26ad	1.0949303
42	0x3f70ae35	0.9401582
43	0x3f77eb38	0.9684329
44	0x3f8703cc	1.0548034
45	0x3f77bc08	0.9677129
46	0x3f786d75	0.9704202
47	0x3f732668	0.9498048
48	0x3f857c27	1.0428513
49	0x3f7ab7ac	0.9793651
50	0x3f6db663	0.92856425
51	0x3f8766c1	1.0578233
52	0x3f6c14f4	0.9221947
53	0x3f8208fa	1.015899
54	0x3f88a5e0	1.0675621
55	0x3f6d3e56	0.9267324
56	0x3f84bc42	1.0369952
57	0x3f855eea	1.041959
58	0x3f67aa9d	0.9049471
59	0x3f6924da	0.91071856
60	0x3f691b59	0.91057354
61	0x3f8ee079	1.1162254
62	0x3f8a8f5b	1.0824999
63	0x3f8297ae	1.0202539

encoder.4.bias f4 [64]
0	0xbd8f03ec	-0.0698317
1	0xbd28d5a5	-0.041219372
2	0xbdb4daed	-0.08830819
3	0xbe468378	-0.19386089
4	0xb8bb954a	-8.944662e-05
5	0xbe5c1196	-0.21491084
6	0xbdb12ce4	-0.0865114
7	0xbe6c01ec	-0.23047608
8	0xbdc22d6e	-0.09481321
9	0xbd546c0e	-0.05186086
10	0xbd74f5b0	-0.05980462
11	0xbdb77140	-0.089571476
12	0xbd550150	-0.052003205
13	0xbdda8fb3	-0.1067194
14	0xbc999241	-0.018746497
15	0xbd11e4f0	-0.035618722
16	0xbd9dca16	-0.077045605
17	0xbcc562f5	-0.024095038
18	0xbd6cb54b	-0.057790082
19	0xbd7a4136	-0.061097346
20	0x3d3e36bc	0.046438918
21	0xbdd82a4b	-0.10554942
22	0xbda0c4f2	-0.07850064
23	0xbdfad39b	-0.12247392
24	0xbcf77862	-0.03020877
25	0xbc9d66eb	-0.019214114
26	0xbdabfe0c	-0.08398065
27	0xbd456b6b	-0.048198145
28	0xbd314422	-0.043277867
29	0xbdf5b3df	-0.11997198
30	0xbe1bc153	-0.15210466
31	0xbdb6efbc	-0.089324445
32	0xbd1f7da4	-0.03893818
33	0xbdbec361	-0.09314609
34	0xbe187a1b	-0.1489033
35	0x3c832413	0.016008412
36	0xbe4b4536	-0.1985062
37	0x3d790f16	0.060805403
38	0xbd5f6d61	-0.05454767
39	0xbd977a40	-0.07396364
40	0xbe0694d8	-0.13142717
41	0xbbd2b400	-0.006430149
42	0xbde448cc	-0.111466974
43	0xbd5d6dfd	-0.05405997
44	0x3bde1146	0.0067769615
45	0xbdcce8d3	-0.10005345
46	0xbde40ee2	-0.11135651
47	0xbcfc1c35	-0.030775169
48	0xbd2e0750	-0.042487442
49	0xbdb38c3a	-0.087669805
50	0xbdb3f1a5	-0.087863244
51	0x3bb9f5c6	0.0056750504
52	0xbdd73e31	-0.10509909
53	0xbde2a665	-0.110668935
54	0x3d935912	0.07194723
55	0xbd94ed75	-0.07271854
56	0xbd23690e	-0.03989511
57	0xbd0e7cd2	-0.034787007
58	0xbdd9a715	-0.106275715
59	0xbddd3522	-0.1080115
60	0xbe162268	-0.14661562
61	0x3b1c4bbc	0.0023848852
62	0xbda68ad8	-0.08131951
63	0xbd00fad5	-0.031489212

encoder.4.running_mean f4 [64]
0	0x3db4c30c	0.08826265
1	0xbea1cb5b	-0.3160046
2	0x3ed4d36d	0.41567555
3	0x3f67b96f	0.90517324
4	0xbed836e9	-0.42229393
5	0x400ad8b3	2.1694763
6	0xbefcfa07	-0.49409506
7	0x3f553b31	0.83293444
8	0xc0011515	-2.0169117
9	0xc00b5675	-2.177152
10	0xbf8c2bc7	-1.095086
11	0xbf41080f	-0.7540292
12	0x3e54e1a5	0.20789202
13	0xbfc6ece0	-1.5541039
14	0xbfc65564	-1.5494809
15	0x3f0f978f	0.56090635
16	0x3f93f388	1.1558695
17	0x3f91691b	1.1360201
18	0x3f853865	1.0407835
19	0x3df5a8b3	0.119950674
20	0xbf092726	-0.5357536
21	0xc031130a	-2.766787
22	0xbf302f8b	-0.68822545
23	0xbe86d4fc	-0.2633437
24	0xbfbe7f28	-1.4882555
25	0xbf21d160	-0.63210106
26	0x3ea74d38	0.326761
27	0x3f315d5f	0.692831
28	0xbf20a764	-0.6275542
29	0xbe69d42e	-0.22834846
30	0xbe5a7242	-0.21332648
31	0x3e612d12	0.21989849
32	0x3f946501	1.1593324
33	0x3d87eb1f	0.06636643
34	0xbf99c82d	-1.2014214
35	0xbfdc2fb9	-1.7202064
36	0x4089bbab	4.3041587
37	0xbfc754e6	-1.5572784
38	0x40029244	2.0401773
39	0x3f5f34fe	0.87190235
40	0x3f0a7cc0	0.54096603
41	0xbea5a57b	-0.32352814
42	0xbfcb339f	-1.5875129
43	0x3f8b852f	1.090002
44	0xbf6fb4fe	-0.9363555
45	0x3fc2c0fd	1.5215145
46	0x3e867d9c	0.26267707
47	0xbfa3becb	-1.27926
48	0xbe50c029	-0.20385803
49	0x3ef38fc9	0.47570637
50	0x3fbb49ea	1.4631932
51	0xbf3263f2	-0.69683754
52	0x402300d0	2.5469246
53	0x3ff721b8	1.9307165
54	0x3d9647ec	0.07337937
55	0xbdf491af	-0.119418494
56	0xbe124386	-0.1428357
57	0xbf9d678d	-1.2297226
58	0xbfb4cc9c	-1.4124942
59	0xbf66309e	-0.89917934
60	0xbfabdcf5	-1.3426806
61	0x3f15941f	0.5842914
62	0xbef766f6	-0.4832074
63	0xbf3b4148	-0.73146486

encoder.4.running_var f4 [64]
0	0x403d94b2	2.9622006
1	0x3fe698cd	1.8015381
2	0x3fa35e43	1.2763141
3	0x405ac06e	3.417995
4	0x4011cd67	2.2781618
5	0x409538af	4.6631694
6	0x3f6d4b72	0.92693245
7	0x400df39b	2.2179935
8	0x406e3cf8	3.7224712
9	0x4037e810	2.873539
10	0x40236629	2.5531104
11	0x3f2a5231	0.66531664
12	0x3f1d0f17	0.6135115
13	0x3fd8bd35	1.6932741
14	0x409e247c	4.9419537
15	0x3f280acb	0.6564147
16	0x409688e8	4.704212
17	0x3fab5aef	1.3387126
18	0x3fa87a3e	1.3162305
19	0x3fa33c26	1.2752731
20	0x401cb112	2.4483075
21	0x3f7d9e66	0.9906982
22	0x3fe8259d	1.8136479
23	0x409e8ae4	4.9544544
24	0x3fc8838a	1.5665143
25	0x3fdca0dc	1.723659
26	0x409b9cbf	4.862884
27	0x3f90719f	1.1284674
28	0x40070e26	2.1102386
29	0x4007d723	2.122506
30	0x40066077	2.0996377
31	0x3f31526c	0.6926639
32	0x402c9b55	2.6969807
33	0x4049cf8c	3.1532927
34	0x407f3b85	3.9880078
35	0x4051575b	3.2709568
36	0x40e8b7e5	7.272448
37	0x3fb7926e	1.4341562
38	0x3fddc532	1.7325804
39	0x3fcc276a	1.5949528
40	0x403be545	2.9358685
41	0x3fa53139	1.2905647
42	0x3f44b1f6	0.76834047
43	0x3f81f92a	1.0154164
44	0x4002bd18	2.0427914
45	0x4033da62	2.810204
46	0x3f87fd6f	1.0624217
47	0x4044cdb9	3.0750563
48	0x4067253b	3.6116474
49	0x410b30ee	8.699446
50	0x4065731b	3.5851505
51	0x3f83b719	1.0290252
52	0x40746e97	3.8192499
53	0x40b662b1	5.6995473
54	0x3fc012ab	1.5005697
55	0x40046c20	2.0690994
56	0x3fce3ed0	1.6112919
57	0x3f903553	1.1266273
58	0x3fe5680c	1.7922378
59	0x4054b28a	3.3233972
60	0x40811b69	4.034596
61	0x3f2584ef	0.64655966
62	0x3fecc530	1.8497677
63	0x3f34ed40	0.70674515

encoder.6.weight f4 [64, 64, 3, 3, 3]
0	0xbd7cc85b	-0.06171451
1	0xbb2d54bb	-0.0026448208
2	0xbbea05d4	-0.007141808
3	0x3c914ea9	0.017737703
4	0x3d69c645	0.05707385
5	0x3b7b997d	0.0038391047
6	0x3c963ff6	0.018341046
7	0xbc99f27d	-0.018792385
8	0xbcb084b8	-0.02154766
9	0xbccb4fe2	-0.024818365
10	0x3a8aa200	0.0010576844
11	0x3bed54a4	0.007242756
12	0xbbe29a82	-0.0069153914
13	0x3cc9dcb1	0.024641367
14	0x3b60bcb3	0.003429216
15	0x3b12591f	0.0022330952
16	0x3d3113b4	0.04323168
17	0xbc31e352	-0.01085742
18	0xbd55fe89	-0.052244697
19	0xbccf0a1c	-0.025273375
20	0xbd2f366e	-0.042776518
21	0xbc63dce1	-0.013907642
22	0xbb4d0f99	-0.0031289815
23	0xbbb7417d	-0.0055925236
24	0xbd20481a	-0.03913126
25	0xbc5cd707	-0.013479001
26	0xbcd79276	-0.026314955
27	0xbc95bbfe	-0.018278118
28	0xbccbb9c1	-0.024868848
29	0xbd481697	-0.04884967
30	0xbbabd2d8	-0.0052436404
31	0xbd94afb0	-0.07260072
32	0xbd155bca	-0.03646449
33	0xbcc5dfec	-0.024154626
34	0xbd192062	-0.0373844
35	0xbd6b594c	-0.057458207
36	0xbcae6e24	-0.021292754
37	0xbd0ac202	-0.033876427
38	0xbd214d11	-0.039380137
39	0xbd0b005d	-0.033935893
40	0xbd27e3ce	-0.040988736
41	0xbd2c13be	-0.042011015
42	0xbc16d147	-0.009205169
43	0xbd292acd	-0.041300584
44	0xbcf74935	-0.030186275
45	0xbb918641	-0.004441053
46	0xbbbb12d9	-0.005709034
47	0xbc927888	-0.01787974
48	0xbc35ad98	-0.011088751
49	0x3c437a43	0.011931005
50	0x3b4c6edc	0.0031194007
51	0x3c79b0a0	0.015239865
52	0x3cfe3028	0.031028822
53	0xbc890675	-0.016726712
54	0x3cd84e8d	0.026404643
55	0x3b586e3e	0.0033024694
56	0xbc527acc	-0.01284666
57	0x3c55da57	0.013052545
58	0xbc8defe8	-0.01732631
59	0xbd2243c8	-0.039615422
60	0xbce29b53	-0.027661955
61	0xbbc889a5	-0.006119924
62	0xbcbfe252	-0.023423348
63	0x3c454c51	0.012042121
64	0xbceaf01a	-0.028678942
65	0xbd6f5bba	-0.058437087
66	0x3c800f30	0.015632242
67	0x3ce6fe18	0.028197333
68	0xbd6a939d	-0.05726968
69	0x3d13ac6e	0.036053114
70	0xbbf25e30	-0.007396482
71	0xbd04f9c2	-0.03246475
72	0xbd016f2b	-0.03160016
73	0xbc5469ac	-0.012964647
74	0x3bba364b	0.0056827418
75	0xbb9bf6c6	-0.0047596423
76	0xbc174f9e	-0.009235291
77	0x3c98c14c	0.018646859
78	0xbb1177e1	-0.0022196698
79	0xbcc3dd54	-0.023909248
80	0xbc814c69	-0.015783506
81	0xbc405106	-0.0117380675
82	0x3cb46d3f	0.022024749
83	0x3d0f3e0e	0.03497129
84	0xbc388026	-0.011261022
85	0x3c2e7ba0	0.010649592
86	0xbbfa509a	-0.007639003
87	0xbc0532c8	-0.008129783
88	0x3c7054b5	0.014668633
89	0x3cc332d9	0.023827957
90	0xbd4cb324	-0.04997553
91	0xbd382c72	-0.04496426
92	0xbb5c854d	-0.003364879
93	0xbce390d0	-0.027779013
94	0xbd0af318	-0.03392324
95	0xbd0b3403	-0.03398515
96	0xbc6c1d48	-0.014411278
97	0xbcad79ae	-0.021176185
98	0xbd126d9d	-0.035749067
99	0xbd36912b	-0.044572037
100	0xbc85ae9f	-0.016318617
101	0xbb5398ba	-0.0032287077
102	0xbd042e4a	-0.032270707
103	0x3c21eb62	0.00988278
104	0xbcff7053	-0.03118149
105	0x39bbea99	0.00035842208
106	0x3cd2c5dc	0.025729112
107	0xba44142e	-0.00074798136
108	0xbd0ddc8c	-0.034634158
109	0xbd0e4926	-0.03473773
110	0xbc574e6a	-0.013141254
111	0xbca67c74	-0.020323016
112	0xb9b0ceeb	-0.00033723502
113	0xbd18b593	-0.037282538
114	0xbcba9c98	-0.022779748
115	0xbd05abb2	-0.032634445
116	0xbd3bc66d	-0.04584353
117	0xbd52611f	-0.051362153
118	0xbcacb199	-0.021080779
119	0xbc9b1359	-0.018930124
120	0xbca81a75	-0.020520428
121	0xbc51e54d	-0.012811017
122	0xbd0f5515	-0.03499325
123	0xbd76cd3f	-0.06025433
124	0xbd2e5b61	-0.042567614
125	0xbc8b8052	-0.017028961
126	0xbb8b14f0	-0.0042444393
127	0x3c3fa858	0.011697851
128	0x3c8b09bc	0.016972415
129	0x3d589cb9	0.052883837
130	0x3d8d1486	0.0688868
131	0x3d7151f4	0.058916047
132	0x3d0e4d3e	0.034741633
133	0x3d1ebdc6	0.0387552
134	0x3cacd5ae	0.021097984
135	0xbc955358	-0.018228218
136	0xbb91bfed	-0.004447928
137	0xbc63f952	-0.013914423
138	0xbac5a8b5	-0.0015080186
139	0xbd32c01b	-0.043640237
140	0xbbe2a37d	-0.006916462
141	0xbbbce7f4	-0.0057649557
142	0xbc9ffb3d	-0.01952898
143	0xbcc3a711	-0.023883374
144	0xbbf34241	-0.0074236696
145	0xbc02924a	-0.007969448
146	0x3c1b1ff3	0.0094680665
147	0x3bffba8a	0.0078042196
148	0xbc2a371b	-0.010389115
149	0xbc37819c	-0.011200335
150	0x3cc2f706	0.02379943
151	0x3bd38dc1	0.0064561074
152	0x3cc76393	0.024339473
153	0xbba57317	-0.00504912
154	0xbb77c06f	-0.0037803908
155	0xbae5750d	-0.0017506197
156	0xbbfa34c4	-0.0076356847
157	0xbc836c5c	-0.01604288
158	0x3cc52d97	0.02406959
159	0x3cf5228c	0.0299237
160	0xbb84093b	-0.0040294207
161	0x3cd35a6a	0.025799949
162	0xbcb728bc	-0.02235829
163	0xbbfe282d	-0.007756254
164	0x3c8cdcbe	0.017195102
165	0xbc56226a	-0.013069728
166	0xbc021a74	-0.007940877
167	0xbc34cbe9	-0.011034944
168	0xbc936c33	-0.01799593
169	0x3b74c582	0.003734917
170	0x3bfd539d	0.0077309147
171	0x3ca6aab8	0.020345077
172	0x399bd0d7	0.00029719502
173	0x3d2985c7	0.041387346
174	0xba74c61c	-0.0009337382
175	0x3c46b588	0.012128241
176	0x3c40295a	0.011728609
177	0x3d48d9b9	0.04903576
178	0x3c0f2cd1	0.008738712
179	0xbc357c85	-0.011077051
180	0xbc48336b	-0.01221929
181	0x3cb8317c	0.022484533
182	0xbd03a2a5	-0.03213753
183	0x3cdab652	0.026698265
184	0xbb6fd1b4	-0.0036593499
185	0xbb559e15	-0.0032595445
186	0xbccbe7f6	-0.024890881
187	0x3c34266b	0.010995488
188	0xbd1788b3	-0.0369956
189	0x3d0717f2	0.03298182
190	0x3cf992fb	0.030465594
191	0x3a2cb293	0.0006587889
192	0xbb838c45	-0.004014524
193	0xbbf4fd09	-0.007476453
194	0x3c5b1939	0.013372713
195	0x3c90acd1	0.01766053
196	0x3c2cfb56	0.01055797
197	0x3ca0a2cd	0.01960888
198	0xbca97c7c	-0.020689242
199	0xbbffbb58	-0.0078043155
200	0x3bf7689e	0.007550313
201	0xbca9c2f8	-0.020722851
202	0xbd0f82ec	-0.035036966
203	0xbbdaa126	-0.0066720424
204	0xbcd0ca51	-0.025487097
205	0x3c2c0461	0.010499091
206	0xbbd64c98	-0.0065398924
207	0xbd1288fe	-0.035775177
208	0xbc168f3d	-0.009189424
209	0xbc8b2601	-0.016985895
210	0xbc921a5b	-0.017834833
211	0xbcb803da	-0.022462774
212	0x3bce53a6	0.0062965928
213	0x3b9b3321	0.0047363196
214	0xbcfe5120	-0.031044543
215	0x3c4c0aea	0.012453774
216	0x3cc3172f	0.023814766
217	0x3b9e886e	0.004838041
218	0x3ce0fd68	0.027464584
219	0xbcaca33a	-0.021073926
220	0xbc6730be	-0.014110742
221	0x3c926830	0.017871946
222	0xbc19ba1e	-0.009382753
223	0x3b865686	0.00409967
224	0x3c4cbe10	0.012496486
225	0x3cdd7121	0.027031483
226	0x3cb69e92	0.02229241
227	0x3c956e93	0.018241202
228	0x3cca24bf	0.024675725
229	0x3d087fab	0.03332488
230	0x3ccb46cb	0.02481403
231	0x3c83d6e9	0.016093688
232	0xbc99d618	-0.018778846
233	0x3a5cc179	0.00084211637
234	0xbbd123f4	-0.00638246
235	0xba69c8cb	-0.0008918165
236	0x3c22d7f6	0.009939184
237	0x3c182370	0.009285793
238	0xbc0e2a96	-0.0086771455
239	0xbbcdfb26	-0.0062860427
240	0xbca5cf16	-0.020240348
241	0xbcd2ae69	-0.02571793
242	0xbd25c894	-0.04047449
243	0xbbc57866	-0.0060263155
244	0xbc4fb62e	-0.012677712
245	0x3c2a7ada	0.010405267
246	0xbc1ae044	-0.009452883
247	0xbbda066d	-0.006653598
248	0xbc4e57d3	-0.012594181
249	0x3d026923	0.031838547
250	0x3d12f426	0.03587737
251	0xbc1bd7e6	-0.009511923
252	0xbd37f7ca	-0.044914044
253	0xbd6d5092	-0.057938166
254	0x3b880669	0.004151155
255	0xbd5dfffd	-0.054199208

encoder.6.bias f4 [64]
0	0x3c3c4f55	0.011493524
1	0x3d0f1291	0.034929816
2	0xbbb25f1c	-0.005443467
3	0x3cb0bcce	0.021574404
4	0xbb45da85	-0.0030190062
5	0x3bb660bc	0.005565731
6	0xbce94fd6	-0.028480452
7	0xbc9c9f37	-0.019118888
8	0xbbb59371	-0.005541258
9	0xbc19dd6e	-0.009391172
10	0xbd3264c7	-0.04355314
11	0x3c34c0bc	0.01103228
12	0xbc4c8f03	-0.0124852685
13	0xbc8db1e2	-0.017296735
14	0x3c1c8a99	0.009554529
15	0xbc7a58e8	-0.015279986
16	0xbc80bb84	-0.015714414
17	0x3c050ff0	0.008121476
18	0x3b8acefe	0.004236101
19	0x3ceba2b4	0.028764106
20	0x3b064a33	0.0020491004
21	0xbc39279f	-0.01130095
22	0xbca1963b	-0.019724956
23	0xbb4b8196	-0.003105258
24	0x3cb452f8	0.022012219
25	0x3c06a767	0.008218623
26	0x3cfb7d38	0.030699357
27	0xbc8a4849	-0.016880171
28	0x3c92ac26	0.017904352
29	0x3cdaa5b6	0.026690345
30	0x3b8922dc	0.0041850638
31	0xbcecd63e	-0.028910752
32	0xbbbe5558	-0.0058085136
33	0x3cdef554	0.027216591
34	0xbd0174db	-0.031605583
35	0xbc55463b	-0.0130172325
36	0xbb4179e9	-0.0029522127
37	0xbcbf0e4f	-0.023322253
38	0x3bd5a965	0.0065204375
39	0xbc1affd3	-0.009460407
40	0x3c9c0861	0.019046964
41	0x3bc1726d	0.005903533
42	0x3b68c9a0	0.0035520568
43	0xbcb57d93	-0.022154605
44	0xbc9d1066	-0.019172858
45	0xbc9791ab	-0.018502077
46	0xbc6fc6f0	-0.014634833
47	0x3b807fac	0.0039214697
48	0x3c3c7040	0.011501372
49	0x3961818e	0.00021505935
50	0x3c758d71	0.014987336
51	0xbb98be66	-0.004661369
52	0xbc908b40	-0.017644525
53	0x3d07b000	0.03312683
54	0xba2ae4e3	-0.0006519092
55	0x3c9fd0cd	0.019508744
56	0x3ce8987c	0.028393023
57	0xbb298c8c	-0.0025871126
58	0xba9227db	-0.0011150794
59	0x3c44eb26	0.012018954
60	0xbbe50941	-0.0069896285
61	0x3afaa436	0.0019122425
62	0xbc5cbd3f	-0.013472854
63	0x3d3d0386	0.04614594

encoder.7.weight f4 [64]
0	0x3f81f910	1.0154133
1	0x3f7ed1e9	0.9953905
2	0x3f81dc18	1.0145292
3	0x3f7f7ec5	0.9980281
4	0x3f7a786b	0.97839993
5	0x3f860662	1.0470698
6	0x3f7e2dea	0.9928881
7	0x3f8315fb	1.0241083
8	0x3f8992c5	1.0747916
9	0x3f80b229	1.005437
10	0x3f844e8c	1.0336471
11	0x3f862b13	1.0481895
12	0x3f802d94	1.0013909
13	0x3f83f639	1.0309516
14	0x3f80557c	1.0026088
15	0x3f8a49a8	1.0803728
16	0x3f814adf	1.0100974
17	0x3f7da2a3	0.9907629
18	0x3f814b6c	1.0101142
19	0x3f830019	1.0234405
20	0x3f79f388	0.97637224
21	0x3f8255e0	1.0182457
22	0x3f7c6f39	0.9860721
23	0x3f7c3179	0.9851299
24	0x3f82df54	1.0224404
25	0x3f80d49b	1.0064882
26	0x3f833617	1.0250882
27	0x3f7ed6f6	0.99546754
28	0x3f8e0b00	1.1097107
29	0x3f89757d	1.073898
30	0x3f7d4129	0.9892755
31	0x3f8ae0e0	1.0849876
32	0x3f81bb59	1.0135299
33	0x3f8148ca	1.0100338
34	0x3f80f3f3	1.0074447
35	0x3f865c02	1.0496829
36	0x3f7be2a3	0.98392695
37	0x3f78ce3c	0.9718969
38	0x3f85391c	1.0408053
39	0x3f806085	1.0029455
40	0x3f83582c	1.0261283
41	0x3f7e5122	0.9934255
42	0x3f828388	1.019639
43	0x3f83cc67	1.0296754
44	0x3f792bb5	0.97332317
45	0x3f862374	1.047957
46	0x3f7afb97	0.98040146
47	0x3f85b177	1.0444783
48	0x3f80332f	1.001562
49	0x3f806d2f	1.003332
50	0x3f846384	1.034287
51	0x3f761b68	0.9613557
52	0x3f889bd9	1.0672561
53	0x3f827efa	1.0195
54	0x3f7a6e03	0.97824115
55	0x3f81adc5	1.0131155
56	0x3f7dfad4	0.9921086
57	0x3f7af291	0.98026377
58	0x3f806005	1.0029303
59	0x3f7c5b82	0.9857713
60	0x3f7a4bc9	0.9777189
61	0x3f898d55	1.0746256
62	0x3f849fa1	1.0361215
63	0x3f80030d	1.0000931

encoder.7.bias f4 [64]
0	0xbd2be4b4	-0.041966155
1	0x3b85caf4	0.004083032
2	0x3c5cff53	0.013488608
3	0xbd474efb	-0.048659306
4	0xbc316425	-0.010827099
5	0x3c0750ef	0.008259042
6	0xbb07f69a	-0.0020746351
7	0xbd33fa29	-0.043939743
8	0x3a9efd2a	0.0012129892
9	0xbc4c68f9	-0.012476199
10	0xbd116e5a	-0.03550563
11	0xbdc6db69	-0.09709818
12	0xbd1aee57	-0.037824955
13	0xbc8b9f2b	-0.01704367
14	0x3c264b79	0.01014983
15	0xbcc82fa3	-0.024436777
16	0xbcaafb36	-0.02087174
17	0xbcc45a94	-0.023968972
18	0xbcf18f2e	-0.029487219
19	0x3be5bb0c	0.007010823
20	0xbca36887	-0.019947303
21	0xbd65ff9b	-0.056151967
22	0xbcc17257	-0.023614092
23	0xbd4d9d8f	-0.050199088
24	0x3c67c8df	0.0141470125
25	0x3c9856d0	0.018596083
26	0xbcf71efb	-0.03016614
27	0xbcf4b923	-0.029873436
28	0xbbe2bb71	-0.0069193174
29	0xbd3731af	-0.044725116
30	0xbcce8492	-0.025209699
31	0x3c9ee73b	0.019397369
32	0x3bb26720	0.0054444224
33	0xbcf507bc	-0.029910915
34	0x3ccdfdf6	0.025145512
35	0x3b80a826	0.003926295
36	0xbd105aaa	-0.035242714
37	0xbd355a20	-0.044275403
38	0xbd630618	-0.055425733
39	0x3c89f50d	0.016840482
40	0xbb30cf4d	-0.002697903
41	0xbc518140	-0.012787163
42	0xbd2cb5a4	-0.042165413
43	0xbd04907d	-0.032364357
44	0xbddca1f2	-0.10773076
45	0x3d02903a	0.031875826
46	0xbbddeadd	-0.0067723827
47	0x3d39f6db	0.045401435
48	0xbb85a05c	-0.004077954
49	0x3c5eb336	0.013592532
50	0x3c5e2aa0	0.013559967
51	0xbd420224	-0.047365323
52	0x3ca5ab19	0.020223187
53	0xbb2435bc	-0.0025056442
54	0xbd28f9ec	-0.04125397
55	0x3c8c9058	0.017158672
56	0x3abb466c	0.0014287955
57	0xbcb066af	-0.021533338
58	0xbcfadce5	-0.030622909
59	0xbb13e3ef	-0.002256628
60	0xbc707ea1	-0.014678628
61	0x3bd86219	0.006603491
62	0x3c860020	0.016357481
63	0xbc85e7f7	-0.016345961

encoder.7.running_mean f4 [64]
0	0xc02b4e08	-2.6766376
1	0xbfa04b76	-1.2523029
2	0xc08990e2	-4.298936
3	0xc020db49	-2.513384
4	0xbf92bbae	-1.1463525
5	0xbe3781a5	-0.17920549
6	0xc0958a3b	-4.673124
7	0xc00000d7	-2.0000513
8	0xbffcdbc4	-1.9754567
9	0xbfd02622	-1.6261637
10	0xbfba31ac	-1.4546409
11	0xbeb52fe4	-0.353881
12	0xc011e297	-2.279455
13	0xbff21751	-1.8913366
14	0xc0520923	-3.2818077
15	0xc00ef664	-2.2337885
16	0xc002cb87	-2.0436723
17	0xbfb0aa26	-1.3801925
18	0xc085ed80	-4.1852417
19	0xbfb3a5d2	-1.4034979
20	0xc031ab4a	-2.7760797
21	0xbf8a1b7e	-1.078964
22	0xc00c8e9c	-2.1962042
23	0x3f79e8f9	0.97621113
24	0xc034cfb7	-2.825178
25	0xbf7c6de5	-0.98605186
26	0xbfdd07bc	-1.7267985
27	0xbf6cf45d	-0.9256037
28	0xc051f429	-3.2805274
29	0xbf04b669	-0.51840836
30	0xbf315631	-0.6927214
31	0xc043fbcc	-3.0622435
32	0xbf8ec850	-1.115488
33	0xbee29546	-0.44254512
34	0x3e1dbe9c	0.15404743
35	0xbfe44e4b	-1.7836393
36	0xc030869c	-2.758216
37	0xc00d2a91	-2.205723
38	0xbfddf11f	-1.7339209
39	0xbffdece1	-1.9837915
40	0xc025fe41	-2.5936434
41	0xbff214cf	-1.89126
42	0x3e79b7e1	0.2438655
43	0xbf189287	-0.59598583
44	0xbf67187f	-0.90271753
45	0xbfafb507	-1.372712
46	0xc0348c34	-2.8210573
47	0xbf900f00	-1.1254578
48	0xc06eb4f7	-3.7297952
49	0xc025d3f7	-2.5910623
50	0xc017c768	-2.3715458
51	0xc038067a	-2.8753953
52	0xbfb1147d	-1.3834378
53	0x3e87accc	0.2649902
54	0xbfd2cce0	-1.6468773
55	0xc06c8686	-3.6957107
56	0xc083befa	-4.1170626
57	0xbfc1ea34	-1.5149598
58	0xbfa51f70	-1.2900219
59	0xc03dbb8e	-2.9645724
60	0xc0c31442	-6.096223
61	0xbfc3f2b9	-1.5308448
62	0x3f604010	0.8759775
63	0xbf4c36ab	-0.79770917

encoder.7.running_var f4 [64]
0	0x40d7124d	6.720984
1	0x40a5b264	5.178026
2	0x40ef1abe	7.4720144
3	0x410a2123	8.63309
4	0x4108f356	8.559408
5	0x4124a4de	10.290251
6	0x4114774b	9.279124
7	0x410216cc	8.130566
8	0x408d8a56	4.4231367
9	0x40b58ad8	5.6731987
10	0x40bab81c	5.8349743
11	0x41115c87	9.08509
12	0x40b8f943	5.7804275
13	0x40c24a59	6.0715756
14	0x40dee79e	6.9657736
15	0x40baa456	5.8325605
16	0x40c0ae5f	6.0212855
17	0x412353d9	10.207971
18	0x40e343bf	7.10202
19	0x40fbcce4	7.868761
20	0x40dce061	6.90239
21	0x40c7117f	6.2208858
22	0x40d2ea4a	6.5910997
23	0x4101b9cb	8.10786
24	0x41582821	13.509797
25	0x412af769	10.685403
26	0x40d387df	6.610336
27	0x40dba35f	6.8636928
28	0x409155f2	4.5417414
29	0x40afbe1e	5.4919577
30	0x409a547a	4.822812
31	0x4102944c	8.161205
32	0x40d74afa	6.7279024
33	0x406e9ff5	3.728513
34	0x41338ee6	11.222387
35	0x413d60ca	11.83613
36	0x40e1cedb	7.056501
37	0x410e5a36	8.897024
38	0x40f6e116	7.7149763
39	0x4105f0e2	8.371309
40	0x413918fc	11.5686
41	0x41025855	8.146565
42	0x41043c87	8.264777
43	0x40f65104	7.6973896
44	0x4082e1f6	4.090083
45	0x40f86bc8	7.763157
46	0x40833e13	4.1013274
47	0x40f6ad76	7.7086744
48	0x40db2cee	6.8492346
49	0x4133dd41	11.241517
50	0x4119191b	9.568629
51	0x40c8a555	6.270182
52	0x410bc1b3	8.73479
53	0x40fa341e	7.818862
54	0x405e1383	3.469941
55	0x413a5935	11.646779
56	0x40e8e9c5	7.2785363
57	0x40dc5103	6.884889
58	0x406e5fb5	3.7245915
59	0x40a0f06f	5.02935
60	0x40cde916	6.434703
61	0x40c87dd9	6.2653623
62	0x41155b67	9.334815
63	0x40eb6562	7.356126

head.0.weight f4 [64, 64, 8, 1, 1]
0	0x3c8372f7	0.01604603
1	0xbd05fdf4	-0.03271289
2	0xbd0ddace	-0.034632497
3	0xbc30e701	-0.010797263
4	0xbd9db947	-0.077013545
5	0xbb8012e7	-0.0039085033
6	0xbcbe4a39	-0.023228751
7	0x3d8628e5	0.06550769
8	0x3d5b9113	0.05360515
9	0x3d3130b2	0.04325933
10	0x3d8082ca	0.06274946
11	0x3d38e703	0.045142185
12	0x3b4631f9	0.0030242188
13	0x3d3d9b27	0.046290543
14	0x3c0c687f	0.008569836
15	0x3d778278	0.06042716
16	0x3d44c966	0.04804363
17	0x3caa7eae	0.020812359
18	0x3cb712f0	0.022347897
19	0x3ced33bd	0.028955335
20	0x3c35e5cd	0.011102152
21	0x3d361c1b	0.044460397
22	0x3d87997b	0.06621071
23	0x3ccefb79	0.025266396
24	0x3ce435f7	0.027857764
25	0xbcb2e6ae	-0.021838512
26	0xbcfa5694	-0.030558862
27	0x3aae1d23	0.001328383
28	0xbd140bc5	-0.036144037
29	0xbd025e3c	-0.03182815
30	0x3db24650	0.08704817
31	0x3ce06ad0	0.027394682
32	0x3a2d262f	0.0006605116
33	0xb8d0a643	-9.9491815e-05
34	0x3d7917e6	0.060813807
35	0xbcd7b394	-0.026330747
36	0x3d8db9ac	0.0692018
37	0xbc4deb93	-0.012568372
38	0x3d82347c	0.06357667
39	0xbcd307af	-0.0257605
40	0xbd087a45	-0.03331973
41	0xbd6bbe26	-0.057554387
42	0x3c1ed70d	0.009694827
43	0xbd62d972	-0.055383153
44	0xbc05d8a5	-0.008169328
45	0xbce3aa42	-0.027791146
46	0xbd2598d6	-0.04042896
47	0xbc406f66	-0.011745309
48	0x3b444957	0.002995094
49	0xbd6823b6	-0.05667468
50	0x3d0a41dd	0.03375422
51	0xbd4dfc8a	-0.05028967
52	0xbce37c88	-0.027769342
53	0x39ddc76c	0.00042300986
54	0x3db9b144	0.09067014
55	0x3cd19a47	0.02558626
56	0x3bc63c25	0.0060496503
57	0xbd18074d	-0.037116338
58	0xbcada664	-0.021197505
59	0x3d316221	0.043306474
60	0x3d248a50	0.040170968
61	0x3d79c9aa	0.060983337
62	0x3d9e0bce	0.07717095
63	0xbd09ed07	-0.033673313
64	0xbbcb273f	-0.006199747
65	0x3803298b	3.1271524e-05
66	0xbc7f0f5c	-0.015567627
67	0xbafcbcf9	-0.0019282392
68	0x3caaf1b5	0.020867208
69	0xbbbbeea8	-0.005735237
70	0x3cd419d9	0.025891231
71	0x3d623aaa	0.055231728
72	0x3c98eb55	0.018666903
73	0x3d66698a	0.056252994
74	0xbd2b1f94	-0.041778162
75	0x3d19d357	0.037555065
76	0xbcd5b7c8	-0.02608861
77	0x3c5add27	0.013358391
78	0xbd98a272	-0.07452859
79	0xbd48aa6f	-0.048990663
80	0xbbf94d4d	-0.007608092
81	0xbd60fac2	-0.05492664
82	0xbd0f3169	-0.03495923
83	0xbdabff96	-0.083983585
84	0x3bc12198	0.0058938973
85	0xbd5a775a	-0.05333648
86	0x3d81b15f	0.06332659
87	0x3d5461e2	0.05185116
88	0xbba298ae	-0.0049620485
89	0xbccd61d4	-0.025071062
90	0x3da6ac4c	0.08138332
91	0xbd17ac45	-0.037029523
92	0xbda9e2c2	-0.08295204
93	0x3c8c37b9	0.017116414
94	0x3d281738	0.041037768
95	0xbcb16a47	-0.021657122
96	0xbd06a5b7	-0.03287288
97	0xbcdc6835	-0.026905159
98	0x3ce620f2	0.028091881
99	0xbbf195fc	-0.007372616
100	0x3d266546	0.040623926
101	0xbba0c696	-0.004906486
102	0xbbdc6a94	-0.0067265723
103	0xbd259aa2	-0.040430672
104	0xbc8bde34	-0.017073728
105	0x3ca00f51	0.019538553
106	0xbbcc462b	-0.0062339506
107	0x3b7f51d0	0.0038958676
108	0x3d9424c9	0.07233579
109	0xbc9c49f2	-0.019078229
110	0x3d3e07fe	0.04639434
111	0x3d0b24ea	0.03397075
112	0x3d26c157	0.040711727
113	0x3d02f868	0.03197518
114	0xbdb30375	-0.08740894
115	0x3c6a9acd	0.014319134
116	0xbceedc6d	-0.029157842
117	0xbd1a9c0b	-0.03774647
118	0x3c0dc107	0.008651978
119	0xb9c74778	-0.00038009486
120	0x3cf7ed16	0.030264419
121	0x3c0201e4	0.007935021
122	0xbdb1c008	-0.08679205
123	0xbd7107bf	-0.058845278
124	0xbd00c2ff	-0.031435963
125	0xbd651b39	-0.055934165
126	0x3d2f31da	0.04277215
127	0x3ce96143	0.02848876
128	0xbc887051	-0.01665512
129	0x3d593131	0.05302543
130	0xbd282ff5	-0.04106136
131	0x3a7b1547	0.00095780607
132	0xbd16c173	-0.03680558
133	0xbdc74eb0	-0.09731805
134	0xbd9b331e	-0.07578109
135	0x3e03d373	0.1287363
136	0x3af1b71b	0.001844141
137	0xbab6d8d7	-0.0013950121
138	0xbd571f59	-0.05252013
139	0x3d4d2a71	0.050089303
140	0xbba0e561	-0.0049101566
141	0x3ae9694c	0.001780787
142	0x3d3ed2f2	0.046587892
143	0x3cd8415e	0.026398357
144	0x3d1d88b4	0.03846045
145	0xbd76089f	-0.060066815
146	0x3d9ab4a5	0.075539865
147	0x3d48d22c	0.04902856
148	0xbcbb00fc	-0.022827618
149	0xbd06845e	-0.03284108
150	0x3ca9701f	0.020683346
151	0xbbaee9f6	-0.005337949
152	0x3d4c2aef	0.049845632
153	0xbb2122a2	-0.0024587293
154	0x3d3a7ed9	0.045531128
155	0xbd0190ae	-0.031632118
156	0x3c834f1a	0.01602893
157	0x3d039ebe	0.03213381
158	0xbc6b63c3	-0.014367047
159	0xbdc6d14d	-0.0970789
160	0x3d6fde1d	0.058561433
161	0xba94e33d	-0.0011359226
162	0xbd3e0762	-0.04639376
163	0xbc980c69	-0.018560605
164	0x3cf53b21	0.029935421
165	0x3d093a92	0.033503123
166	0x3beb0a05	0.0071728253
167	0xbc4ffed8	-0.012695037
168	0x3c3f8ee7	0.011691785
169	0x3cd0aa0a	0.025471706
170	0x3d83db3b	0.06438299
171	0xbba1c920	-0.004937306
172	0x3c50f1b4	0.012752939
173	0x3d22408e	0.039612345
174	0xbd878d6b	-0.0661877
175	0x3bb72d04	0.005590083
176	0xbc0ee86b	-0.008722405
177	0xbcefe0d7	-0.029282017
178	0xbb202c8f	-0.0024440621
179	0xb984d7a7	-0.00025337675
180	0x3b8791b7	0.0041372436
181	0x3c2766e8	0.010217406
182	0x3c0068db	0.0078374995
183	0x3d4ae64c	0.049536034
184	0x3cc1fdf8	0.023680672
185	0xbd86a666	-0.06574707
186	0xbcbc8671	-0.023013325
187	0x3d59dc99	0.053188894
188	0x3bb8ab64	0.0056356657
189	0xbca23ad4	-0.019803442
190	0x3b93ef17	0.0045145857
191	0x3d6f91ae	0.05848854
192	0xbb83e839	-0.004025486
193	0xbd81d0d5	-0.0633866
194	0x3b53d0bd	0.0032320463
195	0x3cbe5976	0.023236018
196	0xbd47ad6a	-0.048749365
197	0xb9980d0e	-0.00029001426
198	0x3d529836	0.05141469
199	0xbde9693a	-0.113970235
200	0x3d63ffa1	0.05566371
201	0x3d47ef3f	0.048812147
202	0x3d1ef893	0.038811278
203	0xbce7b4b3	-0.028284406
204	0x3ce7a029	0.028274613
205	0xbb14a8d8	-0.0022683647
206	0xbd91b8ac	-0.071153015
207	0xbbaa7f03	-0.0052031293
208	0xbcc72540	-0.024309754
209	0xbcacf4ec	-0.021112882
210	0xbd1d033d	-0.038333166
211	0xbd606786	-0.054786228
212	0xbd21af47	-0.039473798
213	0x3d418a15	0.047250826
214	0x3d944ea3	0.07241561
215	0x3d243614	0.040090635
216	0xbcab37d7	-0.02090065
217	0x3c6297f4	0.013830174
218	0x3cc8fcd4	0.02453462
219	0x3d430f56	0.047622047
220	0x3d67cc84	0.056591526
221	0x3c8bb1ed	0.017052615
222	0x3de627ab	0.11238035
223	0x3ccacb7a	0.024755228
224	0xbc66a930	-0.014078423
225	0xbc87195c	-0.016491584
226	0x3d6c8238	0.057741374
227	0xbceacd76	-0.028662425
228	0x3d2c28e1	0.042031173
229	0xbd6c22b2	-0.057650276
230	0x3ce5ae38	0.028037176
231	0x3d5a1988	0.053247005
232	0xbcca4e82	-0.024695639
233	0xbd17587f	-0.03694963
234	0x3d54bd6d	0.051938463
235	0x3b1ac617	0.0023616606
236	0x3d187175	0.037217576
237	0xbc83e857	-0.016102
238	0xbc9cdf73	-0.019149518
239	0xbcdf49f1	-0.027256938
240	0x3c956880	0.018238306
241	0xbb010594	-0.0019687163
242	0x3d637eb9	0.055540774
243	0x3d0e206f	0.0346989
244	0x3d87ce17	0.066311054
245	0x3cda1262	0.026620094
246	0x3d12c0e8	0.0358285
247	0x3bba68c0	0.0056887567
248	0x3d866625	0.06562451
249	0x3cb19c66	0.021681022
250	0x3dadbfba	0.084838346
251	0x3ce17e30	0.027525991
252	0x3d6f6004	0.058441177
253	0xbb23752c	-0.0024941666
254	0x3c47e0bc	0.012199577
255	0xbcf509ca	-0.029911894

head.0.bias f4 [64]
0	0x3d6b76f7	0.0574865
1	0x3c5e8b78	0.013583057
2	0x3dc37e99	0.09545631
3	0x3c213764	0.009839866
4	0xbd0e7a77	-0.03478476
5	0x3cc3d8e4	0.023907132
6	0x3d4d2612	0.050085135
7	0xbd42229a	-0.04739628
8	0xbd1d2e03	-0.03837396
9	0x3aa1170c	0.0012290194
10	0x3c287b7f	0.01028335
11	0xbd16c1b7	-0.036805835
12	0x3d5fd5b1	0.05464715
13	0x3d441e63	0.04788054
14	0x3d43b6d2	0.047781773
15	0x3d0a2517	0.033726778
16	0x3b463627	0.003024468
17	0x3d67c7b3	0.056586932
18	0x3d2fd5a1	0.04292834
19	0xbcfb69d9	-0.03069012
20	0x3d1fc71c	0.039008245
21	0x3d29034e	0.041262917
22	0x3d2eabb8	0.042644233
23	0x3d0cc2ed	0.034365583
24	0xbcd63ba1	-0.02615148
25	0x3ce2a7f6	0.02766798
26	0xbce0e700	-0.0274539
27	0x3c988e7b	0.018622627
28	0x3d1756ee	0.036948137
29	0xbc9b1fec	-0.01893612
30	0x3d447267	0.047960665
31	0x3dc7c014	0.09753433
32	0x3d1f1e60	0.038847327
33	0xbc4d52c2	-0.012531938
34	0x3d5252b7	0.051348414
35	0x3ccb40c2	0.024811152
36	0xbc5df49a	-0.013547087
37	0xbcbe9997	-0.023266597
38	0xbcef947c	-0.029245608
39	0x3ccc33ed	0.024927104
40	0xbcc53b90	-0.024076253
41	0x3ca0d6e9	0.019633727
42	0xbc921b31	-0.017835231
43	0xbbdf4b0a	-0.0068143653
44	0x3d5b5ce2	0.053555377
45	0xbb183487	-0.0023224668
46	0x3d0f28da	0.03495107
47	0x3d83c9c8	0.06434971
48	0xbc8b1fa7	-0.016982866
49	0x3d3c8280	0.046022892
50	0xbcf6e18f	-0.030136852
51	0xbc3c23a1	-0.011483104
52	0xbc96b82b	-0.018398365
53	0x39626755	0.00021591534
54	0x3d5ab51f	0.053395387
55	0xbceb55e3	-0.028727477
56	0x3d2e09fc	0.04248999
57	0x3c2fb545	0.01072437
58	0x3dbb814d	0.091555215
59	0x3d24bf33	0.040221404
60	0x3cd4b2c1	0.025964143
61	0x3c1bf9fb	0.009520049
62	0xbb92443f	-0.004463702
63	0x3b857074	0.0040722433
