backend/models/temporal3d_tplus1.pt (torch, 756430 bytes, 22 tensors)

encoder.0.weight f4 [32, 4, 3, 3, 3]
0	0xbdc273eb	-0.09494766
1	0xbe426358	-0.18983209
2	0x3d9327e0	0.0718534
3	0x3bdce605	0.0067412877
4	0xbdd2034b	-0.10254534
5	0x3d81cdf6	0.06338112
6	0x3e198e55	0.14995702
7	0xbda253d4	-0.07926145
8	0x3e32b49f	0.17451714
9	0xbfe08594	-1.7540765
10	0xbff2f606	-1.898133
11	0xbfe5eaf0	-1.7962322
12	0xbfaa3810	-1.3298359
13	0xbfc5b6b6	-1.5446384
14	0xbfccbabb	-1.5994486
15	0xbfc48c1d	-1.5355259
16	0xbff3510e	-1.9009111
17	0xbfee4dd8	-1.8617506
18	0xbe2567da	-0.16152897
19	0xbe4c6d45	-0.19963558
20	0xbe62dc11	-0.22154261
21	0x3e8498a0	0.25897694
22	0x3d06df46	0.032927774
23	0xbdc73540	-0.097269535
24	0xbdeaa130	-0.11456525
25	0xbe054b19	-0.13016929
26	0xbe87182d	-0.26385632
27	0xbd19df5a	-0.03756652
28	0xbca66041	-0.02030957
29	0x3b994daf	0.00467845
30	0x3d13fea1	0.036131505
31	0x3ddf7774	0.10911456
32	0x3d270cc7	0.04078367
33	0xbd3e57c9	-0.046470437
34	0xbd4af427	-0.049549248
35	0x3d04e99f	0.03244936
36	0x3c6ba0e9	0.014381626
37	0x3e068d27	0.13139783
38	0x3e0d1569	0.13777699
39	0x3d930505	0.07178692
40	0x3cdeb82c	0.02718743
41	0x3d468fbb	0.048476916
42	0x3d87a159	0.066225715
43	0x3e01296f	0.12613462
44	0x3dd1a29a	0.10236092
45	0x3cbc1135	0.022957424
46	0x3d999f90	0.07501137
47	0xbcda8b78	-0.026677832
48	0x3d8dcff6	0.06924431
49	0xbda0c40e	-0.078498945
50	0xbbda7a20	-0.0066673905
51	0xbd0ddb39	-0.034632895
52	0x3c58c448	0.013230391
53	0x3d35d466	0.044392012
54	0x3e1cc4a1	0.15309383
55	0x3e21a972	0.15787295
56	0x3e08b75b	0.13351195
57	0x3cc2b50b	0.023767969
58	0x3e848468	0.25882268
59	0x3d2cb843	0.042167913
60	0xbe74e74a	-0.23916355
61	0x3e26cf54	0.16290027
62	0xbbb9dfec	-0.0056724455
63	0x3c864ab4	0.016393043
64	0x3e442fbf	0.19158839
65	0x3dc4d543	0.09610989
66	0xbd8dd60a	-0.0692559
67	0x3e1c4a50	0.15262723
68	0x3e7ac099	0.24487533
69	0xbe00a38e	-0.12562391
70	0x3e5eeeaf	0.21770738
71	0x3df2d6bb	0.11857363
72	0xbdffb60f	-0.12485897
73	0xbbeea561	-0.0072828983
74	0xbdb5ffd1	-0.08886684
75	0xbe8f5a85	-0.27998748
76	0xbdc41229	-0.09573776
77	0xbd8a1664	-0.06742552
78	0xbeca1aaf	-0.39473483
79	0xbd5c3642	-0.05376268
80	0xbea2276e	-0.31670707
81	0xbe5eeabf	-0.21769236
82	0xbe56cfbd	-0.20977683
83	0xbdf14ea0	-0.11782575
84	0xbe899429	-0.2687085
85	0xbe3b7a4d	-0.18308373
86	0xbe6bc714	-0.23025161
87	0xbe849f78	-0.25902915
88	0xbda6c5c3	-0.08143189
89	0xbde8c40c	-0.11365518
90	0x3d24f2de	0.04027068
91	0x3bc97dea	0.0061490433
92	0xbd886a88	-0.06660944
93	0x3dd367db	0.10322543
94	0x3c5dbe91	0.013534204
95	0x3dc074d6	0.09397285
96	0x3b8b0c76	0.004243429
97	0x3d170d88	0.03687814
98	0x3da89d01	0.08233071
99	0x3da795c8	0.081828654
100	0x3ccab690	0.024745256
101	0x3d84865e	0.06470941
102	0x3dcf8ed4	0.10134664
103	0x3dd14e11	0.10219968
104	0x3dc3bc88	0.09557444
105	0x3df4362e	0.119243965
106	0x3d7d7bf5	0.061885793
107	0xbcab8813	-0.020938909
108	0x3cfcd439	0.030862914
109	0xbe3d6f5b	-0.1849951
110	0x3d3035f7	0.043020215
111	0x3d21e9a0	0.039529443
112	0x3e742654	0.23842746
113	0x3e8c82e3	0.2744361
114	0x3c08f9e0	0.008360356
115	0x3cf54a8d	0.029942775
116	0xbe5155f6	-0.20442948
117	0x3cde1961	0.027111711
118	0x3d15b6a8	0.036551148
119	0xbc3d0b3d	-0.011538324
120	0xbe45890e	-0.19290563
121	0xbd96e684	-0.07368186
122	0x3d6ad4cf	0.057331856
123	0x3db21cee	0.08696924
124	0xbd2c4347	-0.04205635
125	0xbe5e14a4	-0.21687561
126	0x3e0a8524	0.13527352
127	0x3e775cfb	0.24156563
128	0xbb8a427f	-0.0042193527
129	0x3e2587a8	0.1616503
130	0x3e6b76c5	0.22994526
131	0x3e21105c	0.15728897
132	0x3d137f7b	0.036010247
133	0x3e56eca8	0.20988715
134	0x3dc66583	0.096873306
135	0xbbad0a07	-0.0052807364
136	0x3dceaa44	0.10091069
137	0x3e657fde	0.22412059
138	0x3bf51c04	0.0074801464
139	0xbdaf3353	-0.08554711
140	0xbcdd4947	-0.02701248
141	0x3d49441f	0.04913723
142	0x3d077593	0.033071112
143	0x3e515c8d	0.20445462
144	0xbdc7757f	-0.097392075
145	0xbd8d601a	-0.069030955
146	0xbdae7831	-0.085190184
147	0xbb9a85cb	-0.0047156564
148	0x3d9605fd	0.07325361
149	0x3d699646	0.057028078
150	0x3e0095a2	0.1255708
151	0x3e58fde1	0.21190597
152	0x3e348a41	0.17630865
153	0xbf0b8bd4	-0.54510236
154	0xbf6c81b4	-0.9238541
155	0xbea8854c	-0.32914197
156	0xbfa0a0d4	-1.2549081
157	0xbfc1d334	-1.5142579
158	0xbf94eebf	-1.163536
159	0xbec9e041	-0.39428905
160	0xbf545016	-0.829347
161	0xbef06bbf	-0.46957204
162	0xbcea085f	-0.028568445
163	0x3e271d09	0.1631967
164	0xbe9adeab	-0.30248007
165	0xbdb6ca9c	-0.089253634
166	0xbd39b918	-0.045342535
167	0xbea84257	-0.32863113
168	0x3df18fc9	0.11795003
169	0x3e0d7725	0.13814981
170	0x3d0648ac	0.03278415
171	0xbd037a76	-0.03209921
172	0xbdf1c7e8	-0.11805707
173	0xbd045018	-0.032302946
174	0x3e7b3e3d	0.24535461
175	0x3db5ce01	0.08877183
176	0xbd0612d6	-0.032732807
177	0xbe91e56d	-0.2849535
178	0xbbfa4c17	-0.007638465
179	0xbd5b5b03	-0.053553592
180	0xbf04299d	-0.51625997
181	0xbe74b493	-0.23897009
182	0xbe18fb28	-0.14939559
183	0xbeb68b20	-0.3565302
184	0xbeaaad62	-0.33335406
185	0xbe2ea701	-0.17055894
186	0xbe8c7d2c	-0.2743925
187	0xbe841e31	-0.25804284
188	0xbe809a5e	-0.25117773
189	0xbebf5324	-0.3736812
190	0xbefadc29	-0.48996094
191	0xbec837a9	-0.39104965
192	0xbeb94dee	-0.36192268
193	0xbedcf29a	-0.4315384
194	0xbecace63	-0.39610586
195	0xbe52b370	-0.20576262
196	0xbe11c560	-0.14235449
197	0xbe23f320	-0.16010714
198	0x3d2ff958	0.042962402
199	0xbd300375	-0.042972047
200	0xbdc8504f	-0.09780943
201	0xbd53af94	-0.051681116
202	0xbda32d5e	-0.079676375
203	0xbdc54282	-0.09631826
204	0x3db9d50c	0.090738386
205	0xbc7a41f2	-0.015274512
206	0x3d3a1db0	0.04543847
207	0x3e270aeb	0.16312759
208	0x3d2a8e57	0.041639652
209	0xbc8f480f	-0.017490415
210	0x3e5fcedd	0.21856256
211	0x3d4c8561	0.049931888
212	0x3d801ffd	0.06256101
213	0x3df5480b	0.11976632
214	0x3e407434	0.18794328
215	0x3e3e9fd9	0.18615665
216	0xbd0cb2d9	-0.03435025
217	0x3e46d579	0.19417371
218	0x3cad63c7	0.021165742
219	0x3cb78617	0.022402806
220	0x3e4aa89f	0.19790886
221	0xbe728b00	-0.23685837
222	0x3e27b4f5	0.16377623
223	0x3eacc61f	0.33744904
224	0xbdd12bb8	-0.10213417
225	0x3e59a363	0.21253733
226	0x3e0a48ce	0.13504335
227	0xbdc3974e	-0.095503435
228	0xbdf83b5f	-0.12120699
229	0x3ec4e542	0.3845616
230	0xba3280e7	-0.0006809369
231	0x3e28d5fa	0.16487876
232	0x3e89c96d	0.26911488
233	0xbe3cbeff	-0.18432234
234	0x3e3414ba	0.17586032
235	0x3d997fe7	0.074950986
236	0x3e509a79	0.20371427
237	0xbe695238	-0.2278527
238	0xbead7c35	-0.33883825
239	0xbcb9b022	-0.022666994
240	0xbc71f17a	-0.014767045
241	0xbe86b50c	-0.26310003
242	0xbe8ea0e0	-0.27857113
243	0xbe8f1c5d	-0.27951327
244	0xbe821595	-0.2540709
245	0xbe6f95cd	-0.23396988
246	0xbe52fdb2	-0.2060459
247	0xbdb2e364	-0.087347776
248	0xbd1c2de2	-0.038129695
249	0xbc7bd7bb	-0.015371258
250	0x3dce4621	0.1007197
251	0x3d9d4de3	0.07680871
252	0xbea06b92	-0.3133207
253	0xbe634dc7	-0.22197638
254	0xbe601088	-0.21881306
255	0xbe29388f	-0.16525482

encoder.0.bias f4 [32]
0	0xbe45bea5	-0.19311006
1	0xbd323f48	-0.04351738
2	0xbc9b2710	-0.018939525
3	0x3d65d497	0.056110945
4	0xbc9fe272	-0.019517157
5	0x3e0f5aa7	0.13999425
6	0x3dc0af54	0.09408441
7	0x3d2c2e7f	0.04203653
8	0x3dbea3be	0.09308575
9	0xbe03d7e6	-0.12875327
10	0xbd613d60	-0.054990172
11	0x3d50064d	0.05078726
12	0x3dcc7d6a	0.09984858
13	0xbd8caf9e	-0.06869434
14	0xbda088c0	-0.07838583
15	0x3e48e224	0.19617516
16	0x3e2453e5	0.16047628
17	0x3d1d90af	0.03846806
18	0x3e18e42b	0.14930789
19	0xbe0688ca	-0.13138118
20	0xbdf99711	-0.12187017
21	0x3dc12a04	0.09431842
22	0xbc9fb472	-0.019495223
23	0xbcfb73e3	-0.030694908
24	0xbe331091	-0.17486788
25	0x3e259e2b	0.16173618
26	0xbd94493e	-0.07240532
27	0x3dc51ca5	0.09624604
28	0xbc260899	-0.010133886
29	0xbe0a39b9	-0.13498582
30	0xbd2d9e7c	-0.04238747
31	0x3d0bc004	0.034118667

encoder.1.weight f4 [32]
0	0x3f8d083b	1.1018137
1	0x3f201e4a	0.6254622
2	0x3f073dc7	0.5282864
3	0x3f31ea92	0.6949855
4	0x3f03cb86	0.5148243
5	0x3f42849d	0.759836
6	0x3f0ee9d8	0.5582557
7	0x3fba4fdc	1.4555621
8	0x3f3d41d8	0.73928595
9	0x3f125f08	0.57176256
10	0x3f489cf0	0.7836447
11	0x3f1a0792	0.601678
12	0x3f9291db	1.1450762
13	0x3f03bfd0	0.5146456
14	0x3ed2bb55	0.41158548
15	0x3f811df5	1.0087267
16	0x3f08b82a	0.5340601
17	0x3f686c7f	0.9079055
18	0x3fb37663	1.4020504
19	0x3f4b17f9	0.79333454
20	0x3f2d2d57	0.6764731
21	0x3fb26148	1.3935938
22	0x3eeef10e	0.46668285
23	0x3ebb3004	0.3656007
24	0x3f938990	1.1526356
25	0x3fb83644	1.439156
26	0x3fa61233	1.2974304
27	0x3f11f683	0.5701677
28	0x3efd61b0	0.49488592
29	0x405151a8	3.270609
30	0x3f9501e5	1.1641203
31	0x3fd088a7	1.6291703

encoder.1.bias f4 [32]
0	0xbf1033e3	-0.5632917
1	0xbeba2327	-0.36354944
2	0xbe7c4b52	-0.24638107
3	0xbeabe74c	-0.33574903
4	0xbe036eb4	-0.12835199
5	0xbdf9dad8	-0.12199944
6	0xbf066d24	-0.52510285
7	0xbf293fdd	-0.6611307
8	0xbeb8f3a4	-0.36123383
9	0xbecd0619	-0.40043715
10	0xbeb4e8c9	-0.3533385
11	0xbdb55270	-0.08853614
12	0xbf292ae1	-0.66081053
13	0xbe19b518	-0.15010488
14	0xbe8d7d8e	-0.27634853
15	0xbe3f611f	-0.18689393
16	0xbf13ca65	-0.57730705
17	0xbee5c8d9	-0.44879797
18	0xbe875cdc	-0.26438034
19	0xbed20d74	-0.4102589
20	0xbe29707f	-0.1654682
21	0xbeb1418e	-0.34620327
22	0xbd0f0d3a	-0.034924723
23	0xbdcb3b29	-0.09923393
24	0xbf38ca36	-0.7218355
25	0xbed1fb75	-0.4101216
26	0xbf152c3a	-0.5827061
27	0xbe5d4e09	-0.216118
28	0xbe349c65	-0.17637785
29	0xbf6a35ed	-0.91488534
30	0xbec5c656	-0.3862788
31	0xbe966c7a	-0.29379636

encoder.1.running_mean f4 [32]
0	0xc07e8c7f	-3.9773252
1	0xc02f6508	-2.7405415
2	0xbff61909	-1.922639
3	0xbfad1145	-1.3520895
4	0x3eead8d5	0.45868555
5	0xbe70bd79	-0.23509778
6	0xbce98c81	-0.02850938
7	0xbff42fec	-1.9077125
8	0xbf2d00d0	-0.67579365
9	0xc03cdeb3	-2.9510925
10	0xc09366be	-4.606292
11	0x3eb7d807	0.35907003
12	0xbf60894f	-0.87709516
13	0xbf6c4eeb	-0.9230792
14	0xbfc709f9	-1.5549918
15	0xc0c5568f	-6.166816
16	0xbf6dfa2c	-0.92959857
17	0xc109d5be	-8.614683
18	0xbf66c22c	-0.9014003
19	0xc004d49f	-2.0754774
20	0xbee51edd	-0.4475011
21	0xbf4e0098	-0.80469656
22	0xbfd17f34	-1.6366944
23	0xbd8a60f0	-0.067567706
24	0xbf9e2a5b	-1.2356676
25	0xc01ae0cf	-2.4199712
26	0xbe5e4b1e	-0.21708342
27	0xbe83cffa	-0.2574461
28	0xbe33987e	-0.1753864
29	0xbf7c1eca	-0.9848448
30	0xbf69a4ad	-0.912669
31	0xbfb19b43	-1.3875507

encoder.1.running_var f4 [32]
0	0x4210d031	36.203312
1	0x4103e3b7	8.243094
2	0x4096f645	4.717562
3	0x3f8111f4	1.0083604
4	0x3f00de82	0.5033952
5	0x3ff5dde7	1.9208344
6	0x3ea0c51a	0.31400377
7	0x4094c4d6	4.649028
8	0x3fb6d33f	1.4283217
9	0x4040b55f	3.01107
10	0x420361fb	32.845684
11	0x40434e1b	3.0516422
12	0x3f6a7720	0.9158802
13	0x40356ac1	2.8346407
14	0x3fcca23f	1.5987014
15	0x42a5a69a	82.82539
16	0x407651e0	3.8487473
17	0x43269e9c	166.61957
18	0x41366e18	11.401878
19	0x4019fb36	2.4059577
20	0x40ba77e3	5.8271346
21	0x412e36ab	10.888347
22	0x40d95578	6.791683
23	0x3fbddf59	1.4833785
24	0x406dea8f	3.7174413
25	0x41e0c52f	28.096281
26	0x405d0795	3.4535878
27	0x4035a636	2.8382697
28	0x3f2cbc7b	0.674751
29	0x40b139c8	5.5383034
30	0x400f9d9e	2.2439952
31	0x410a0396	8.625875

encoder.3.weight f4 [64, 32, 3, 3, 3]
0	0xbd097ee9	-0.033568297
1	0x3ca8ef8a	0.020622034
2	0x3e063bc7	0.13108741
3	0xbd2cb6b3	-0.042166423
4	0xbdaca673	-0.08430185
5	0xba8e0665	-0.0010835646
6	0x3c664205	0.014053826
7	0x3df14d28	0.117822945
8	0x3d9e77cb	0.077376924
9	0xbd687fa1	-0.05676234
10	0x3d0e7526	0.03477969
11	0x3d97f269	0.07419283
12	0xbdaa2d39	-0.08309407
13	0xbd866888	-0.065629065
14	0xbce204e8	-0.02759023
15	0xbc3d2af0	-0.011545882
16	0xbd2b8ce8	-0.041882426
17	0xbd2fc30b	-0.042910617
18	0xbdbbf8cc	-0.091783136
19	0xbde2ad5c	-0.11068222
20	0xbca59499	-0.020212458
21	0xbe2c59c6	-0.16831121
22	0xbe456dec	-0.19280213
23	0xbe0b4775	-0.13601477
24	0x3bd44b5e	0.006478711
25	0xbd354c21	-0.044262055
26	0x3ca0e0de	0.019638475
27	0xbd2d9821	-0.04238141
28	0xbc3bfa3c	-0.011473235
29	0x3dd80e80	0.10549641
30	0x3e23a3da	0.15980473
31	0x3d5cc852	0.053901978
32	0x3e0ba2b6	0.13636288
33	0x3ddb3ebf	0.10705327
34	0xbd77b7fe	-0.060478203
35	0x3db25a85	0.087086715
36	0xbe5c46da	-0.21511403
37	0xbe8e6c9d	-0.2781724
38	0xbedb544f	-0.4283776
39	0xbe974152	-0.29542023
40	0xbe334489	-0.17506613
41	0xbe98e81f	-0.29864594
42	0xbe841893	-0.258
43	0xbe4e3933	-0.20139007
44	0xbe13644b	-0.14393727
45	0xbe4e1203	-0.20124058
46	0xbd4442a5	-0.04791512
47	0xbcb5d3e4	-0.022195764
48	0xbd961911	-0.07329
49	0xbde23677	-0.110455446
50	0xbe470083	-0.19433789
51	0xbc733919	-0.014845156
52	0xbc7c787e	-0.015409587
53	0xbd0edbb2	-0.034877487
54	0xbe90335f	-0.28164193
55	0x3d94f8e3	0.07274034
56	0x3d954155	0.07287852
57	0xbeab7bf6	-0.33493012
58	0xbe0758fe	-0.13217542
59	0x3ccb9a6b	0.024853906
60	0xbea334b4	-0.31876147
61	0xbe489b32	-0.19590452
62	0x3b197fbe	0.0023422088
63	0xbe43ad74	-0.19109136
64	0xbe123401	-0.1427765
65	0x3e18c8eb	0.14920394
66	0xbe97660e	-0.2957005
67	0xbe6b46a2	-0.22976163
68	0x3ca4f0c2	0.020134334
69	0xbe451e5b	-0.19249861
70	0xbe1970a4	-0.14984375
71	0x3d577887	0.05260518
72	0xbe0067d5	-0.12539609
73	0x3d8de394	0.06928173
74	0x3bda1dcd	0.0066563846
75	0xbe8f8aba	-0.28035527
76	0xbdc7cfad	-0.09756408
77	0xbe39d1e1	-0.18146469
78	0xbdf1429c	-0.11780283
79	0xbda6229e	-0.081120715
80	0xbbb8a61f	-0.0056350376
81	0x3d60d45f	0.054890033
82	0x3e40be92	0.18822697
83	0xbdfbdf78	-0.12298483
84	0xbb85b921	-0.004080907
85	0x3f148fb5	0.5803178
86	0xbe0fe832	-0.14053419
87	0xbe0be8e4	-0.1366306
88	0xbd094262	-0.033510573
89	0xbde72be0	-0.11287665
90	0xbe2c0415	-0.16798432
91	0xbcb8cb2d	-0.02255782
92	0x3da77509	0.081766196
93	0xbeb64d4d	-0.3560585
94	0xbd34dc88	-0.044155627
95	0xbdd08ec5	-0.10183481
96	0xbd83b843	-0.064316295
97	0x3d911279	0.070836015
98	0x3e22afcd	0.15887375
99	0x3b1fb9b7	0.002437217
100	0x3e4d454f	0.2004597
101	0xbe30c802	-0.17263797
102	0x3c3f95f1	0.011693464
103	0x3f00ecb9	0.5036121
104	0xbdc8e199	-0.09808654
105	0xbc9e681d	-0.019336754
106	0x3e12a72b	0.14321582
107	0x3df3b2d4	0.11899343
108	0x3ddac970	0.106829524
109	0x3d86dd05	0.06585125
110	0xbbed5a7f	-0.007243454
111	0x3e728555	0.23683675
112	0x3db20a06	0.08693318
113	0x3dcc15aa	0.099650696
114	0x3e8cf5e2	0.27531344
115	0xbe50a9e8	-0.20377314
116	0xbdc9c325	-0.09851674
117	0x3e306284	0.1722508
118	0xbced71bd	-0.028984899
119	0x3ce8b219	0.028405236
120	0x3e99be1d	0.30027857
121	0xbe03825e	-0.128427
122	0x3e3e71ce	0.185981
123	0x3ebe64a0	0.37186146
124	0x3e39864c	0.18117636
125	0x3e3ae83a	0.1825265
126	0x3e0b0287	0.13575183
127	0xbdc784fa	-0.0974216
128	0x3d6c5f78	0.057708234
129	0x3d8e1cc9	0.06939084
130	0xbe95f884	-0.29291165
131	0xbdb5e006	-0.0888062
132	0x3e15a13e	0.1461229
133	0x3d832823	0.0640414
134	0xbc9e9466	-0.019357871
135	0xbd0ed696	-0.034872614
136	0x3cb22abc	0.021748893
137	0xb9ae79a9	-0.0003327851
138	0x3da5d642	0.08097507
139	0xbbbefb6e	-0.0058283126
140	0x3d572112	0.052521773
141	0xbc990efe	-0.018683907
142	0x3dbfc6e6	0.09364109
143	0x3dc5c493	0.09656634
144	0x3ced0262	0.0289318
145	0x3e4463ec	0.19178742
146	0x3ef6d27f	0.4820747
147	0xbde8c9a3	-0.11366584
148	0xbe6574e4	-0.22407871
149	0x3e4870d6	0.19574293
150	0xbe43893b	-0.19095318
151	0xbe6c25c2	-0.23061278
152	0x3da0a9c1	0.07844878
153	0xbe4257e0	-0.18978834
154	0x3e27608a	0.1634542
155	0xbdbe182f	-0.092819564
156	0x3ae641fb	0.0017567271
157	0x3ea17a3f	0.3153858
158	0xbe14349d	-0.14473195
159	0xbe481855	-0.19540532
160	0x3e8870c5	0.26648536
161	0xbe06ecad	-0.13176222
162	0x3dc35c01	0.09539033
163	0xbdb040fe	-0.08606146
164	0x3da79f7a	0.081847146
165	0x3e094180	0.13403893
166	0xbe1863be	-0.14881799
167	0x3d58714d	0.052842427
168	0x3e6d18ea	0.23154035
169	0x3d20ac0f	0.039226588
170	0xbb6e1d9b	-0.0036333564
171	0x3e157c34	0.14598161
172	0xbe7ac514	-0.24489242
173	0xbe67ad06	-0.22624597
174	0x3c04112e	0.008060737
175	0xbdca1207	-0.0986672
176	0xbd86f551	-0.06589759
177	0x3dc713c0	0.09720564
178	0x3e033d18	0.12816274
179	0x3e3de00d	0.185425
180	0xbe62004d	-0.22070427
181	0x3e26b33a	0.16279307
182	0xbd9d64d9	-0.07685251
183	0xbe01ef43	-0.12688927
184	0x3ec14607	0.3774874
185	0x3c31c395	0.010849853
186	0x3e153b86	0.14573488
187	0x3deb61c9	0.114932604
188	0x3e2af902	0.16696551
189	0x3dd90b2e	0.105978355
190	0x3d941b10	0.07231724
191	0x3d9148c9	0.07093961
192	0x3d8d073f	0.06886148
193	0xbb102bbd	-0.0021998726
194	0xbd2db222	-0.04240621
195	0x3ea08ce8	0.31357503
196	0x3e12cc62	0.14335778
197	0x3cf6befb	0.030120363
198	0x3d5a78ad	0.05333774
199	0x3db2618e	0.08710013
200	0xbd67ca2c	-0.05658929
201	0x3dd5f256	0.104466125
202	0xbc5eed73	-0.013606417
203	0x3cf6858f	0.030092983
204	0x3d4e0ce0	0.050305247
205	0x3e170d13	0.14751081
206	0xbd01c9c6	-0.031686567
207	0xbe90d98a	-0.2829097
208	0x3d0a3c15	0.033748705
209	0x3c108dfc	0.008822914
210	0x3e357479	0.17720212
211	0x3b29ccfd	0.0025909536
212	0xbaf14ef4	-0.0018410371
213	0xbe35aa21	-0.1774068
214	0x3cab156d	0.02088424
215	0xbc1e5c8f	-0.009665622
216	0x3d891583	0.06693556
217	0x3eaa4d83	0.33262262
218	0xbd09ace0	-0.033612132
219	0x3e81c455	0.25345102
220	0xbddfbb06	-0.10924344
221	0xbd780fab	-0.060561817
222	0x3d342346	0.043978952
223	0x3d706033	0.058685493
224	0x3d0f1e28	0.03494087
225	0x3d2897fe	0.041160576
226	0x3e7dd4b4	0.24788171
227	0xbec018f9	-0.37519053
228	0xbdb2ef3f	-0.08737039
229	0xbe32c44a	-0.17457691
230	0xbe208a3a	-0.15677729
231	0xbe6e86f8	-0.23293674
232	0xbd83770b	-0.0641919
233	0xbea8f3b2	-0.32998425
234	0x3e8bdbb2	0.27316052
235	0x3e27e61e	0.16396376
236	0xbdbd21e3	-0.09234979
237	0x3e40a52c	0.18813008
238	0x3d9332e5	0.07187442
239	0x3dd1286a	0.102127865
240	0x3e0c5900	0.13705826
241	0x3e313601	0.17305757
242	0x3c527ce0	0.012847155
243	0xbdaf8fae	-0.085723266
244	0x3d6c813f	0.057740446
245	0x3e9f3079	0.3109167
246	0xbe0a08c8	-0.13479912
247	0xbde2b64d	-0.11069927
248	0x3dffe8c1	0.12495566
249	0x3c185bfb	0.009299274
250	0xbd2e0824	-0.042488232
251	0xbe045381	-0.12922479
252	0xbc73bb0a	-0.014876137
253	0x3bdf376d	0.006812027
254	0x3dbcf554	0.0922648
255	0xbe2c0508	-0.16798794

encoder.3.bias f4 [64]
0	0x3c2e2607	0.010629184
1	0xbc364176	-0.011124006
2	0xbc1f97ff	-0.009740829
3	0x3d2f3248	0.04277256
4	0x3ca95c46	0.020673882
5	0x3cde4417	0.027132077
6	0x3bd3d875	0.0064650127
7	0xbc5314a6	-0.012883341
8	0xbd31347b	-0.04326294
9	0xbb7d7bd6	-0.0038678548
10	0xbc3ec87f	-0.011644482
11	0xbac29d00	-0.0014847815
12	0xbc30d4f0	-0.010792956
13	0xbbf2be9c	-0.0074079763
14	0x3c21d748	0.009877987
15	0xbd202d0b	-0.039105456
16	0x3c90eea1	0.017691912
17	0xbcb19b88	-0.021680608
18	0xbd05e179	-0.03268573
19	0x3d135f63	0.03597964
20	0x3d442c31	0.047893707
21	0xbc7ece7d	-0.01555216
22	0xbd266db6	-0.040631972
23	0xbd12ea1f	-0.035867807
24	0x3bf0b35d	0.0073456005
25	0x3d2ee96e	0.042703085
26	0x3d4477ac	0.04796569
27	0xbca1bd85	-0.01974369
28	0xbc78215e	-0.015144674
29	0xbcf66aae	-0.030080166
30	0x3d061098	0.03273067
31	0xbd13bd09	-0.03606895
32	0x3cba4472	0.022737715
33	0xbcb93bdf	-0.022611557
34	0xbc65fad6	-0.014036855
35	0xbbb777dc	-0.005599005
36	0xbd160da9	-0.03663412
37	0x3cfc400c	0.030792259
38	0x3be0838e	0.00685162
39	0xbb58d47e	-0.003308564
40	0x3d2496ec	0.040182993
41	0x3cca75c6	0.024714362
42	0xbc85e166	-0.01634283
43	0x3be51714	0.0069912765
44	0x3c3e24b1	0.011605428
45	0xbd0c16ee	-0.034201555
46	0x3b869192	0.004106709
47	0x3bc86ebd	0.0061167167
48	0xbd908a02	-0.07057573
49	0xbaee789d	-0.0018193905
50	0x3c492d95	0.012278934
51	0xbcbdefa4	-0.023185559
52	0xbb7205aa	-0.0036929646
53	0xbd065d7c	-0.032803997
54	0x3d09d119	0.033646677
55	0x3b067525	0.00205166
56	0xbc948fe8	-0.018135026
57	0xbc5d5631	-0.013509319
58	0x3d093d78	0.033505887
59	0x3d012272	0.03152699
60	0xbc9cdee3	-0.01914925
61	0x3b96b4aa	0.0045991736
62	0xbacf3453	-0.001580844
63	0xbb581219	-0.0032969771

encoder.4.weight f4 [64]
0	0x3f965356	1.1744182
1	0x3f40916e	0.7522191
2	0x3f61fbe5	0.88274986
3	0x3f4b266c	0.793555
4	0x3f75257c	0.9576032
5	0x3f5c56c1	0.86069876
6	0x3f828dc9	1.0199519
7	0x3f5bd91a	0.85878146
8	0x3f4de876	0.8043283
9	0x3f8f5b3d	1.1199719
10	0x3f79b197	0.97536606
11	0x3fe198ce	1.7624757
12	0x3f71b7cf	0.94421095
13	0x3f5d4dc5	0.8644679
14	0x3fe2d94a	1.7722561
15	0x3f393725	0.7234977
16	0x3f7a679c	0.97814345
17	0x3f6c4a09	0.9230047
18	0x3f6e487e	0.93079364
19	0x3fb1c048	1.3886805
20	0x3f6a94bd	0.91633207
21	0x3f6c9acb	0.92423695
22	0x3f5f4612	0.87216294
23	0x3f611452	0.8792163
24	0x3fa1436a	1.2598698
25	0x3fa26fe7	1.26904
26	0x3f8a32b2	1.0796721
27	0x3f5307c7	0.8243374
28	0x3f88b981	1.0681611
29	0x3f8a5edd	1.08102
30	0x3f763fb6	0.96190965
31	0x3f87f87e	1.0622709
32	0x3f823723	1.0173076
33	0x3f7411de	0.95339763
34	0x3f823e44	1.0175252
35	0x3f7d1e26	0.9887413
36	0x3f640cd8	0.890821
37	0x3f54332b	0.82890576
38	0x3f6aa227	0.91653675
39	0x3f5b0ea6	0.85569227
40	0x3f4c8061	0.7988339
41	0x3f44d487	0.7688679
42	0x3f72a034	0.947757
43	0x3f49dbbe	0.78850925
44	0x3f2ff8fd	0.687393
45	0x3f96eecd	1.1791626
46	0x3f75d383	0.96025866
47	0x3f341f67	0.70360416
48	0x3f833df1	1.0253278
49	0x3f9c8250	1.2227268
50	0x3f6bb71e	0.9207629
51	0x3f70b12b	0.94020337
52	0x3f9a6684	1.2062535
53	0x3f87672f	1.0578364
54	0x3f4746d8	0.77842474
55	0x3f929197	1.145068
56	0x3fa43765	1.2829405
57	0x3f5d58bf	0.8646354
58	0x3f7291b0	0.9475355
59	0x3f6df75f	0.92955583
60	0x3f8dbdeb	1.1073583
61	0x3f3023d6	0.6880468
62	0x3f6e7e80	0.93161774
63	0x3f62c4f5	0.8858178

encoder.4.bias f4 [64]
0	0xbea60fdd	-0.32433978
1	0xbed4da6d	-0.41572896
2	0x3e1a5d20	0.15074587
3	0xbdeb2c8b	-0.11483105
4	0xbe492420	-0.19642687
5	0xbf4fb4f4	-0.8113549
6	0xbedcd02e	-0.43127578
7	0xbea41a4c	-0.32051313
8	0xbd0ea583	-0.034825813
9	0xbf1b8dad	-0.60763055
10	0xbe4245fc	-0.1897201
11	0xbf3975d4	-0.72445416
12	0xbeba52bc	-0.36391246
13	0xbec29e83	-0.3801156
14	0xbf651ba2	-0.8949529
15	0x3c0172b5	0.007900883
16	0xbd16579c	-0.036704645
17	0xbf1f9d13	-0.6234905
18	0xbde84866	-0.11341934
19	0xbf1b199d	-0.6058596
20	0x3d8b98a0	0.0681622
21	0xbebc5993	-0.3678709
22	0x3da5844b	0.080818735
23	0xbce798f3	-0.028271174
24	0x3d3951c0	0.04524398
25	0xbf06cc81	-0.526558
26	0xbf0872e4	-0.5330031
27	0xbd548568	-0.05188504
28	0xbeca3117	-0.39490578
29	0xbef8fbe8	-0.4862969
30	0xbd3fdb43	-0.046839964
31	0xbe4576cf	-0.19283603
32	0xbf14dcab	-0.5814921
33	0xbebdf711	-0.3710256
34	0xbe9d15d1	-0.30680707
35	0xbe33b22b	-0.17548434
36	0xbf5ad276	-0.8547739
37	0xbf2749d0	-0.65347004
38	0x3e939592	0.2882505
39	0xbe540d7a	-0.20708266
40	0x3dbef61f	0.093242876
41	0xbe832391	-0.25613073
42	0xbe4cb4d9	-0.19990863
43	0xbe8bc09d	-0.2729539
44	0xbee158a2	-0.44012934
45	0xbef5ca5b	-0.48005947
46	0xbe8d1e78	-0.27562308
47	0xbe3e25a3	-0.18569045
48	0xbed95324	-0.42446244
49	0xbefb1906	-0.4904253
50	0xbea09a3d	-0.31367674
51	0x3e68ca23	0.22733359
52	0xbeeb4832	-0.45953518
53	0xbedb0cda	-0.42783242
54	0xbec2627d	-0.37965766
55	0xbecf9ce9	-0.405494
56	0xbf3176b4	-0.6932175
57	0xbf0f55e8	-0.5599046
58	0x3e93a758	0.2883861
59	0x3ddeac8b	0.10872754
60	0xbea7afee	-0.3275141
61	0xbf22545e	-0.63409984
62	0xbaca7cbf	-0.0015448554
63	0xbf3ba254	-0.7329457

encoder.4.running_mean f4 [64]
0	0x3ff2802f	1.8945369
1	0x40051309	2.0792868
2	0xbf975e48	-1.1825647
3	0xbf1fac64	-0.6237242
4	0xbfd60fcf	-1.6723574
5	0xc05c3875	-3.4409459
6	0x3ebef866	0.37298888
7	0xbff3dfc6	-1.9052665
8	0xbfa4822f	-1.2852229
9	0x40809f6f	4.019462
10	0xc00a8f3a	-2.1649919
11	0x3f1f4ec5	0.6222957
12	0x40bb26d8	5.8484917
13	0x3fa2bf4f	1.2714633
14	0x4007cf47	2.1220262
15	0xbf652a0f	-0.895173
16	0x3f9b333e	1.2125013
17	0x41122f39	9.136529
18	0x3cee92a9	0.029122667
19	0x404454f3	3.067685
20	0xbf3c3d0e	-0.7353066
21	0xbfe892fa	-1.8169854
22	0xbfbaf43f	-1.4605788
23	0xbe441680	-0.19149208
24	0xbec5152e	-0.3849272
25	0xbfc1eea3	-1.5150951
26	0x3ff34dbf	1.9008101
27	0xbf6e5129	-0.9309259
28	0x40769416	3.8527884
29	0x40a23d49	5.069981
30	0x3f1056c0	0.5638237
31	0xbfbcd1fc	-1.4751582
32	0x40a0f005	5.0292993
33	0x3f4388ba	0.76380503
34	0xbe77c390	-0.24195695
35	0xbf94110d	-1.1567703
36	0x3fcd9c23	1.6063274
37	0x4050efa6	3.264627
38	0x3eb288be	0.3486995
39	0x40591a28	3.3922215
40	0xc0083781	-2.1283877
41	0xbedc7434	-0.43057406
42	0x3f11fd01	0.5702668
43	0xbf61d1db	-0.8821084
44	0xbf8190dd	-1.0122334
45	0xbf79e1f4	-0.976104
46	0x3fb59c3b	1.4188303
47	0xbf9557f3	-1.1667465
48	0x3f881e18	1.0634184
49	0x3f2a41f7	0.66506904
50	0xc0965ec4	-4.699068
51	0x3f85fc6d	1.0467659
52	0x3f8005ae	1.0001733
53	0x4040581c	3.0053778
54	0x3f61b343	0.88164157
55	0xbf23824c	-0.6387069
56	0x4115f4bf	9.372252
57	0x40874569	4.227223
58	0xbff9d30e	-1.9517534
59	0xc017286e	-2.3618426
60	0xbdef8d2c	-0.11696848
61	0xbfb76e7f	-1.4330596
62	0x3d4e6bd5	0.050395805
63	0xc097c2d9	-4.742535

encoder.4.running_var f4 [64]
0	0x409816b3	4.752771
1	0x4240e584	48.224136
2	0x41431be0	12.194305
3	0x40a070bd	5.013762
4	0x40b40cf6	5.626582
5	0x405471d2	3.319447
6	0x40d654dd	6.6978593
7	0x411d0c0a	9.815439
8	0x4178a9dd	15.541471
9	0x4135ab69	11.354348
10	0x41afb458	21.963058
11	0x40be7970	5.952324
12	0x41e7d77c	28.980217
13	0x41a517b0	20.636566
14	0x411bab80	9.72937
15	0x40f3cad6	7.6185102
16	0x412ab9b5	10.670339
17	0x4279e333	62.471874
18	0x41979467	18.947462
19	0x409e6f18	4.9510612
20	0x41111628	9.067909
21	0x410fe0ce	8.992384
22	0x413c3e5e	11.765226
23	0x411648f6	9.392813
24	0x414fc645	12.985906
25	0x404548f7	3.0825784
26	0x403f80f3	2.9922454
27	0x417326eb	15.197001
28	0x41ea5dbd	29.29577
29	0x42364669	45.56876
30	0x41506c40	13.026428
31	0x40981a70	4.753227
32	0x4192d7bc	18.35534
33	0x4199fd4f	19.248686
34	0x403bc96d	2.934169
35	0x40f07991	7.5148396
36	0x415e46ed	13.892316
37	0x41b49d62	22.576847
38	0x41b683dc	22.814384
39	0x417ebc5a	15.920984
40	0x411a8ae9	9.658914
41	0x411200fb	9.125239
42	0x40865760	4.198166
43	0x41619f02	14.10132
44	0x419d8b50	19.693024
45	0x40be0447	5.938022
46	0x413f1442	11.942446
47	0x40fef915	7.9679055
48	0x41ad67a1	21.6756
49	0x40a289da	5.0793276
50	0x41c436da	24.526783
51	0x41324439	11.141656
52	0x413e83e5	11.907201
53	0x41cdd9db	25.731375
54	0x4192ac7b	18.334219
55	0x414c5ae8	12.772194
56	0x428d29dd	70.581764
57	0x42019a6b	32.4008
58	0x4175c436	15.360403
59	0x41048cb1	8.2843485
60	0x40c016d6	6.0027876
61	0x41a264c1	20.299196
62	0x411cbc4d	9.795972
63	0x40a8f807	5.280277

encoder.6.weight f4 [64, 64, 3, 3, 3]
0	0xbedffd21	-0.4374781
1	0xbe6a5d1c	-0.22887081
2	0xbe8562c9	-0.2605193
3	0xbdc1455f	-0.094370596
4	0x3f033570	0.51253414
5	0xbd2d497b	-0.042306405
6	0xbe2fac12	-0.17155483
7	0x3c3b5af5	0.01143526
8	0xbe2753d0	-0.16340566
9	0xbdeae4aa	-0.114693955
10	0xbe2d3fff	-0.16918944
11	0x3ceda875	0.02901099
12	0xbdf35819	-0.11882038
13	0x3eb79228	0.35853696
14	0x3c6c3c1c	0.014418628
15	0xbe335e87	-0.17516528
16	0x3cd004ab	0.02539285
17	0xbd6b1eaa	-0.05740229
18	0x3ba8e3ff	0.0051541324
19	0x3e8da897	0.27667686
20	0x3dbce83a	0.09223981
21	0x3ea62731	0.32451776
22	0x3f28542b	0.6575343
23	0x3ed769b5	0.42072836
24	0xbb7bafb6	-0.0038404292
25	0x3e6dca50	0.23221707
26	0x3dd1def1	0.10247601
27	0x3df9ffdb	0.12207004
28	0x3dddd546	0.10831694
29	0x3d80ea13	0.06294646
30	0x3d8221f3	0.063541315
31	0x3d8e9a92	0.06963076
32	0x3dcbf2b0	0.09958398
33	0x3e121a69	0.14267887
34	0x3dde3fcb	0.10852011
35	0x3e113d1d	0.14183469
36	0x3dc9a136	0.09845202
37	0x3ded9de8	0.11602384
38	0x3dc45e84	0.0958834
39	0x3db7db25	0.089773454
40	0x3e0b8b65	0.13627394
41	0x3dd6ebaf	0.10494172
42	0x3d57be94	0.052671984
43	0x3e0b6030	0.13610911
44	0x3e10df4e	0.14147684
45	0x3e21868c	0.15773982
46	0x3e30d348	0.17268097
47	0x3de4561f	0.11149239
48	0x3e199b7a	0.15000716
49	0x3e42d347	0.19025908
50	0x3df48916	0.119402096
51	0x3e1fcb3a	0.15604869
52	0x3e495380	0.19660759
53	0x3e3669bd	0.17813773
54	0x3e3bd6ac	0.1834361
55	0x3e4f62e2	0.20252565
56	0xbd089cae	-0.033352546
57	0x3dbccea2	0.092190996
58	0x3db5edfb	0.08883282
59	0xbd9fd5e8	-0.07804471
60	0xbeb5fb41	-0.35543254
61	0xbeaa9ea5	-0.3332416
62	0xbe71cabc	-0.23612493
63	0xbf121721	-0.5706654
64	0xbee2821a	-0.44239885
65	0xbed15fd0	-0.40893412
66	0x3cdbfa2a	0.026852686
67	0x3d3f03ac	0.04663436
68	0xbdeeab02	-0.11653711
69	0xbdc78cba	-0.09743638
70	0xbd9c09c0	-0.07619047
71	0xbdc21a65	-0.094776906
72	0x3dc496d8	0.09599084
73	0xbc2b66b4	-0.010461498
74	0xbd48ae35	-0.04899426
75	0x3e8c7519	0.27433088
76	0x3e7f6573	0.24941044
77	0x3dfa8dbf	0.12234067
78	0x3ea191d2	0.31556565
79	0x3e536993	0.20645742
80	0x3d793d5b	0.06084953
81	0x3da6c788	0.08143526
82	0x3c120a62	0.008913608
83	0x3e1b485e	0.15164325
84	0xbe2f909c	-0.17145008
85	0x3da5e5a0	0.08100438
86	0x3e59a7a3	0.21255355
87	0xbe0f9e98	-0.14025342
88	0x3cfe6c26	0.031057429
89	0x3e177939	0.14792337
90	0xbeaadf45	-0.33373466
91	0xbe96bfc6	-0.29443187
92	0xbe600139	-0.21875466
93	0xbe952985	-0.2913324
94	0xbe330711	-0.17483164
95	0xbf152e16	-0.58273447
96	0xbf01176d	-0.5042637
97	0xbebbde0d	-0.3669285
98	0xbecff503	-0.40616617
99	0xbe9711b2	-0.29505688
100	0xbe39bb59	-0.18137874
101	0x3e199615	0.14998658
102	0xbec5de48	-0.3864615
103	0x3f1ffdbe	0.62496555
104	0x3ebf8d44	0.37412465
105	0xbe6d1d63	-0.23155741
106	0x3ef0c93f	0.4702854
107	0x3f0341cb	0.5127227
108	0x3e017285	0.12641342
109	0xbd469fbc	-0.04849218
110	0x3ce17526	0.027521681
111	0xbdcd00f1	-0.10009945
112	0xbe116fae	-0.14202759
113	0x3dbf86f4	0.09351912
114	0xbd313951	-0.04326755
115	0xbbdaa4c2	-0.0066724727
116	0x3da719fa	0.081592515
117	0x3eb07db7	0.34470913
118	0x3e809081	0.25110248
119	0x3ef00c55	0.4688441
120	0x3e68bbf5	0.2272795
121	0xbe7f0cb2	-0.24907187
122	0xbd00db13	-0.031458925
123	0x3e8b0146	0.2714941
124	0x3dfdde13	0.12395873
125	0x3e820dc3	0.25401124
126	0xbe3f2644	-0.18666941
127	0xbe71679d	-0.23574682
128	0xbe802265	-0.2502624
129	0xbd65f59b	-0.05614243
130	0x3d8bef73	0.06832781
131	0xba7f6bbe	-0.0009743533
132	0x3e2c1ba5	0.1680742
133	0x3e5b2697	0.2140144
134	0x3d6d693a	0.05796168
135	0xbe086018	-0.13317907
136	0xbb7f506f	-0.0038957854
137	0xbd4eafc5	-0.050460596
138	0xbdd8824c	-0.10571727
139	0x3a99a797	0.0011722919
140	0x3c18f4a9	0.009335675
141	0xbdb507a4	-0.08839348
142	0x3ae938c8	0.0017793411
143	0x3dd9cf2a	0.106352165
144	0xbf00d33d	-0.50322324
145	0xbeff2e21	-0.4983988
146	0xbf34d4f8	-0.70637465
147	0xbe903cb4	-0.28171313
148	0xbe5a88ac	-0.21341199
149	0xbefe1075	-0.4962193
150	0xbeef25e8	-0.46708608
151	0xbe8a9acc	-0.27071226
152	0xbf090a18	-0.53531027
153	0xbec52a26	-0.3850872
154	0xbeb2c50d	-0.34915963
155	0xbeb4ee2c	-0.3533796
156	0xbeea0e4f	-0.45714042
157	0xbecabcdf	-0.39597222
158	0xbeafb865	-0.3432037
159	0xbea1d8cb	-0.31610712
160	0xbeb434cd	-0.35196534
161	0xbeadeb76	-0.33968705
162	0x3e2597b3	0.1617115
163	0xbe59ea5b	-0.21280806
164	0x3e588b6f	0.2114694
165	0xbe24fb4b	-0.16111486
166	0xbe931bc9	-0.28732136
167	0xbece99b6	-0.40351647
168	0x3a557232	0.00081423216
169	0xbdb71681	-0.08939839
170	0xbdf46ed8	-0.11935204
171	0xbe93cb07	-0.28865835
172	0xbe8e39ca	-0.27778465
173	0xbe0d0c76	-0.13774285
174	0xbe5781c4	-0.21045595
175	0xbf15015c	-0.582052
176	0xbef5fd5e	-0.48044866
177	0xbdc3d30f	-0.095617406
178	0xbe80f238	-0.25184798
179	0xbddd3afd	-0.10802267
180	0xbc8a5ec1	-0.016890885
181	0xbf026391	-0.50933176
182	0xbe00627a	-0.12537566
183	0xbe12a506	-0.14320764
184	0x3e357d04	0.17723471
185	0xbecf74ee	-0.40518898
186	0x3e0a6311	0.13514353
187	0x3eaa2f28	0.33239102
188	0x3e542f44	0.20721155
189	0xbdd66243	-0.10467961
190	0xbe113226	-0.14179286
191	0xbe68836b	-0.22706382
192	0xbeab355b	-0.33439144
193	0xbe945f11	-0.2897878
194	0xbe9506bf	-0.2910671
195	0xbedb11c3	-0.4278699
196	0xbf088665	-0.5333007
197	0xbed5bb95	-0.41744676
198	0xbe7dfd59	-0.24803676
199	0xbe3fc298	-0.18726575
200	0xbdc87fd2	-0.09790005
201	0xbda44e56	-0.08022754
202	0xbdbfcfb3	-0.09365787
203	0xbd147295	-0.036242086
204	0x3dfce6a8	0.12348682
205	0x3d978e39	0.07400174
206	0x3db299ab	0.08720716
207	0xbf2107b5	-0.62902385
208	0xbf372637	-0.71542686
209	0xbf2c2709	-0.6724706
210	0xbf3679a1	-0.7127934
211	0xbf44494a	-0.7667433
212	0xbf2d6337	-0.67729515
213	0xbf47e186	-0.78078496
214	0xbf407ded	-0.7519215
215	0xbf14705a	-0.57983935
216	0xbda55911	-0.08073629
217	0xbe01a53e	-0.12660691
218	0xbe51a3f6	-0.20472702
219	0xbdaab079	-0.08334441
220	0xbdc693b0	-0.09696138
221	0xbead1903	-0.33808145
222	0xbd475398	-0.048663706
223	0xbd3ade84	-0.045622364
224	0xbe94222d	-0.28932324
225	0xbd864f93	-0.06558146
226	0xbe0a33f1	-0.13496377
227	0xbd8206fb	-0.06348988
228	0x3b5f9abd	0.003411933
229	0x3e3b2e20	0.18279314
230	0xbd024f4e	-0.031813912
231	0x3c259ffd	0.010108945
232	0x3e12eb86	0.14347658
233	0x3cf13d67	0.029448224
234	0x3befda6a	0.007319738
235	0x3d7ee912	0.062233992
236	0x3d7d2090	0.061798632
237	0xbd6ee21b	-0.0583211
238	0xbd9dd94f	-0.07707464
239	0xbcf6a968	-0.030110076
240	0x3c83f04a	0.01610579
241	0xbd1680b7	-0.036743846
242	0xbd6f23d9	-0.058383796
243	0xbefc1611	-0.49235585
244	0xbe3e62f0	-0.18592429
245	0xbe9506b0	-0.29106665
246	0xbdd4d63c	-0.103924245
247	0x3e2e2276	0.17005333
248	0x3d45013e	0.048096888
249	0xbdb56f4d	-0.088591196
250	0x3dc86d1d	0.09786437
251	0xbbd9ae66	-0.0066431044
252	0x3d4753b4	0.04866381
253	0xba088292	-0.0005207445
254	0x3e156e2f	0.14592813
255	0x3e0692c6	0.13141927

encoder.6.bias f4 [64]
0	0x3c456fae	0.012050552
1	0x3c5e3c07	0.013564116
2	0x397cdef3	0.00024115648
3	0xbcca4837	-0.024692638
4	0x3c7b8610	0.015351787
5	0xbc200680	-0.009767175
6	0x3d0d3bb3	0.03448076
7	0xbb1a35c6	-0.0023530587
8	0xbcfcc012	-0.030853305
9	0x3b6c7d6b	0.0036085497
10	0x3cc7f4d6	0.024408739
11	0xbcd63176	-0.026146632
12	0x3cd473e8	0.025934175
13	0x3cd40735	0.025882343
14	0xbba899c6	-0.0051452843
15	0xbd07ede1	-0.033185843
16	0x3c517b2f	0.012785717
17	0xbcb261f0	-0.021775216
18	0x3c5e5b6b	0.0135716
19	0xbc156dfc	-0.009120461
20	0x3c94993e	0.018139478
21	0x3cdbca20	0.02682978
22	0xbb089c58	-0.0020845141
23	0x3c29ac14	0.010355968
24	0xbcac865a	-0.021060158
25	0x3c2b0217	0.01043751
26	0xbae14eb2	-0.0017189591
27	0x3cf26c4e	0.02959266
28	0x3c235b34	0.009970475
29	0xbbbb4e7a	-0.0057161422
30	0xbcdb5f1f	-0.026778756
31	0xbce07f4b	-0.027404448
32	0x3bedd8d1	0.0072585125
33	0x3d1b488e	0.03791099
34	0x3c20e28a	0.009819636
35	0xbc0efd4b	-0.008727382
36	0xbcb5b20c	-0.022179626
37	0xbb978b41	-0.0046247547
38	0x3d2108e8	0.039315134
39	0x3c42bcab	0.011885802
40	0xbb4f5643	-0.003163711
41	0xbb1bc41c	-0.0023768013
42	0x3ce54ffd	0.027992243
43	0xbc5212f2	-0.0128219
44	0xbd00a978	-0.031411618
45	0x3d72422b	0.059145134
46	0x3c47158a	0.012151131
47	0xbbaf0b1c	-0.0053419005
48	0xbbcf3875	-0.006323869
49	0x3cfa4227	0.030549122
50	0xbb86a946	-0.0041095344
51	0xbca7e9e4	-0.02049727
52	0xbc472954	-0.0121558495
53	0xbc8e7bf8	-0.017393097
54	0xbc0a31de	-0.008434741
55	0x3ba536b2	0.0050419206
56	0xbc95034d	-0.01819005
57	0xbce43119	-0.027855443
58	0x3c29bccb	0.010359953
59	0xbc9ede95	-0.019393245
60	0x3c370de6	0.011172747
61	0x3c1c7d0a	0.009551296
62	0x3c8d7d7f	0.017271755
63	0x3c143fa2	0.009048374

encoder.7.weight f4 [64]
0	0x3f2ce154	0.67531323
1	0x3f1c8d9a	0.61153567
2	0x3f33e1e5	0.7026656
3	0x3f604c90	0.87616825
4	0x3f47acec	0.7799823
5	0x3f3e08e6	0.7423233
6	0x3f559b51	0.8344012
7	0x3f4f45a1	0.8096562
8	0x3f35ec21	0.7106343
9	0x3f163856	0.5867971
10	0x3f49e4ba	0.78864634
11	0x3f74cef2	0.95628273
12	0x3f42e5f6	0.7613214
13	0x3f3ebe07	0.7450871
14	0x3f2bea35	0.67154247
15	0x3f3f31a4	0.7468512
16	0x3f828791	1.0197622
17	0x3f8021d4	1.0010324
18	0x3f194d83	0.598839
19	0x3f3ef835	0.74597484
20	0x3f4513b0	0.76983166
21	0x3f2381b0	0.6386976
22	0x3f4733d6	0.7781347
23	0x3f1cd3cb	0.6126067
24	0x3f7a0071	0.97656924
25	0x3f4d9c2e	0.80316436
26	0x3f63a16f	0.88918203
27	0x3f3aab39	0.72917515
28	0x3f344447	0.7041668
29	0x3f2e157e	0.68001544
30	0x3f4aa028	0.7915063
31	0x3f4d1d82	0.8012315
32	0x3f4ce30c	0.80033946
33	0x3f4e63f8	0.8062129
34	0x3f4844a1	0.7822972
35	0x3f4d4339	0.801807
36	0x3f3d1530	0.73860455
37	0x3f4befaf	0.79662603
38	0x3f399f34	0.7250855
39	0x3f51760c	0.8182075
40	0x3f7eda36	0.99551713
41	0x3f2ab614	0.6668408
42	0x3f44438a	0.76665556
43	0x3f4fe50b	0.81208867
44	0x3f40d236	0.75320756
45	0x3f4d95a0	0.80306435
46	0x3f4f349e	0.8093966
47	0x3f22ccdd	0.63593847
48	0x3f3b215b	0.7309777
49	0x3f1dc028	0.6162133
50	0x3f400d06	0.7501987
51	0x3f3f3785	0.7469409
52	0x3f0f66fb	0.5601651
53	0x3f142e32	0.5788299
54	0x3f3972a8	0.72440577
55	0x3f771257	0.9651236
56	0x3f7041a2	0.9385015
57	0x3f513647	0.81723446
58	0x3f7e997a	0.99452937
59	0x3f49e48c	0.7886436
60	0x3f4d4756	0.80186975
61	0x3f0ce9e8	0.5504441
62	0x3f5ac759	0.8546043
63	0x3f466d2c	0.77510333

encoder.7.bias f4 [64]
0	0xbee7dbd5	-0.45284906
1	0xbe463bbd	-0.19358726
2	0xbd16daf0	-0.03682989
3	0xbed12164	-0.40845788
4	0xbbf29f25	-0.0074042254
5	0xbeb775ec	-0.35832155
6	0xbde7c476	-0.11316769
7	0xbe2c5425	-0.16828974
8	0xbf11efac	-0.57006335
9	0xbe666d91	-0.22502734
10	0xbe4e0247	-0.20118056
11	0xbebfa2e1	-0.37428954
12	0xbf1c11ac	-0.60964465
13	0xbd8f0ec3	-0.069852374
14	0xbe0e1269	-0.1387421
15	0xbe51093b	-0.20413677
16	0xbec15222	-0.37757975
17	0xbeeb5908	-0.45966363
18	0xbdd5b636	-0.104351446
19	0xbf0a9b42	-0.54143155
20	0xbe0c2321	-0.13685276
21	0xbe8a675d	-0.27031985
22	0xbe8ac9f1	-0.27107194
23	0xbe2c0529	-0.16798843
24	0xbea12ef4	-0.31481135
25	0xbe44fdbc	-0.19237417
26	0xbea7ef38	-0.32799697
27	0xbe44a996	-0.19205317
28	0xbe8ccbe3	-0.27499303
29	0xbe6ccc41	-0.23124792
30	0xbe619bb8	-0.22032058
31	0xbe7fd850	-0.2498486
32	0xbead7d96	-0.33884877
33	0xbe8ecfb5	-0.27892843
34	0xbec3e19a	-0.38258058
35	0xbe85fe6d	-0.26170674
36	0xbdbd024e	-0.09228955
37	0xbea602c6	-0.3242399
38	0xbe46d6ed	-0.19417925
39	0xbdb979d7	-0.09056442
40	0xbeea2590	-0.45731783
41	0xbd86e75c	-0.06587097
42	0xbeeb3d5c	-0.4594525
43	0xbe134200	-0.14380646
44	0xbe91f31e	-0.28505796
45	0xbe655f8a	-0.22399727
46	0xbd6e5c6b	-0.058193605
47	0xbe2edc20	-0.17076159
48	0xbea33d91	-0.3188291
49	0xbe2a01b6	-0.16602215
50	0xbe0bca62	-0.13651422
51	0xbe4112d7	-0.18854843
52	0xbea22e76	-0.31676072
53	0xbe90e3fb	-0.28298935
54	0xbede47e4	-0.43414223
55	0xbe002980	-0.12515831
56	0xbe2badcc	-0.16765517
57	0xbe99bade	-0.3002538
58	0xbeccf3ed	-0.4002985
59	0xbf0f92ed	-0.56083566
60	0xbdbb9bb1	-0.09160555
61	0xbee05f62	-0.4382277
62	0xbe78303d	-0.24237151
63	0xbefaed9a	-0.490094

encoder.7.running_mean f4 [64]
0	0xc118faef	-9.561263
1	0xc11977ad	-9.591718
2	0xc14a7c22	-12.655306
3	0xc15403cc	-13.250927
4	0xc189cb29	-17.2242
5	0xc128e877	-10.556754
6	0xc1330562	-11.188814
7	0x413e4cb4	11.893726
8	0xc115ced0	-9.362991
9	0xc11ad392	-9.676653
10	0xc188439a	-17.033009
11	0xc15b7efe	-13.718504
12	0xc0e27d5c	-7.0778027
13	0xc16d1f8b	-14.820201
14	0xc10fdf79	-8.992059
15	0x40b8cf4f	5.775306
16	0xc173bf17	-15.234153
17	0xc04b26d5	-3.174245
18	0xc1010613	-8.063983
19	0xc13231a2	-11.137117
20	0xc14feb53	-12.994952
21	0xc1964796	-18.784954
22	0xc08ef2cb	-4.467138
23	0xc0b9b850	-5.803749
24	0xc0e591c7	-7.174045
25	0xc1ccdb09	-25.60695
26	0xc131d8e1	-11.115449
27	0xc1397fda	-11.593714
28	0xc061467a	-3.5199265
29	0xbef219a8	-0.472852
30	0xc14ef268	-12.934181
31	0xc12c403b	-10.765681
32	0x3f97f306	1.187104
33	0xc1789d94	-15.538471
34	0xc0e8e816	-7.278331
35	0xc18e96c7	-17.823622
36	0xbfbd273d	-1.47776
37	0xbf2bf307	-0.67167705
38	0xc0e8e94d	-7.278479
39	0xc00609c5	-2.0943463
40	0xbf738b7d	-0.9513472
41	0xc14b17e6	-12.693335
42	0xbfd9f1f4	-1.7026963
43	0xc0b04c27	-5.509296
44	0xc0e514f4	-7.1588078
45	0xbfec12b5	-1.8443209
46	0xc1431943	-12.193667
47	0xc1909d82	-18.076908
48	0xc0f73ed2	-7.7264185
49	0x411f580d	9.958997
50	0xc1a80335	-21.001566
51	0xc115bb73	-9.358264
52	0xbfe79c65	-1.8094603
53	0xc09bec7f	-4.872619
54	0xc112cb42	-9.1746235
55	0xc10837e8	-8.513649
56	0xc131643b	-11.08697
57	0xc0f903ed	-7.781729
58	0xc09e82ce	-4.9534674
59	0x3fb702d4	1.4297738
60	0xc108e33f	-8.55548
61	0x3c8e55d1	0.017374905
62	0xc0b44a9d	-5.634108
63	0xc192c866	-18.34785

encoder.7.running_var f4 [64]
0	0x42f08a40	120.27002
1	0x4318b39c	152.7016
2	0x43e30579	454.04276
3	0x433c3222	188.19583
4	0x4365e351	229.88795
5	0x42e159eb	112.67562
6	0x43614e7e	225.30661
7	0x43ab72f6	342.89813
8	0x42973552	75.60414
9	0x430f1fb8	143.1239
10	0x437b53c1	251.32716
11	0x42c3b1a8	97.846985
12	0x42ea9dc9	117.308174
13	0x434f31f4	207.19513
14	0x435657cf	214.343
15	0x432aef89	170.93568
16	0x43156d60	149.42725
17	0x4334b8ca	180.72183
18	0x43a81008	336.12524
19	0x42f6d2d0	123.41174
20	0x43812db0	258.35693
21	0x437f5e70	255.3689
22	0x4404013c	528.0193
23	0x4324342b	164.20378
24	0x42fa14e7	125.040825
25	0x43a9495a	338.57306
26	0x42e072a5	112.223915
27	0x43991244	306.1427
28	0x42e80521	116.01002
29	0x433b8c3f	187.54784
30	0x4314360c	148.21112
31	0x43193270	153.19702
32	0x4392eafe	293.83588
33	0x42f8ceab	124.40365
34	0x430c9382	140.5762
35	0x438d1ead	282.23965
36	0x43a5457e	330.5429
37	0x43294fc3	169.31157
38	0x431cbbb6	156.73325
39	0x43a3ce07	327.6096
40	0x4320596d	160.34932
41	0x430a7440	138.4541
42	0x437dd58f	253.83421
43	0x442e92b6	698.29236
44	0x42cde7bd	102.952614
45	0x437c818e	252.50607
46	0x4408eb6d	547.6785
47	0x437740d3	247.25322
48	0x433b2c35	187.17268
49	0x43a13174	322.38635
50	0x436e886b	238.53288
51	0x439c87ce	313.06097
52	0x431e6ba3	158.42046
53	0x435252de	210.3237
54	0x44152837	596.62836
55	0x4309061e	137.0239
56	0x434c2ebc	204.18256
57	0x42f748e8	123.642395
58	0x431d0e46	157.05576
59	0x4352d6fc	210.83978
60	0x438fabaf	287.34128
61	0x43d122b5	418.27115
62	0x439a63e7	308.7805
63	0x432426d9	164.15175

head.0.weight f4 [64, 64, 4, 1, 1]
0	0xbd2a9abc	-0.041651472
1	0xbd1de280	-0.038546085
2	0xbd0202c4	-0.03174092
3	0x3eacc6f1	0.3374553
4	0xbeac56f1	-0.3366008
5	0xbd7a73f2	-0.06114573
6	0xbe1907cf	-0.14944385
7	0xbe51ba31	-0.20481183
8	0x3ce8e46f	0.028429238
9	0xbd1eb0a4	-0.038742676
10	0xbc7ecd14	-0.015551824
11	0xbdbf6903	-0.09346201
12	0xbe5142dd	-0.20435663
13	0x3e98e9ee	0.29865974
14	0x3d4bfc94	0.049801424
15	0x3e24d22f	0.16095804
16	0xbe111c72	-0.14171007
17	0xbeb4b3e1	-0.35293487
18	0xbe570783	-0.20998959
19	0x3e48d657	0.19613014
20	0x3d0cdd11	0.034390513
21	0x3e435f24	0.19079262
22	0xbda97055	-0.08273379
23	0x3d9c4801	0.07630921
24	0xbe50f833	-0.2040718
25	0x3dae8d9a	0.08523102
26	0x3d6125c6	0.054967664
27	0x3d39aedc	0.045332775
28	0x3cdfe518	0.02733092
29	0x3d645ae7	0.055750754
30	0x3e869245	0.2628347
31	0x3d5f51b9	0.054521296
32	0x3c203779	0.009778851
33	0xbc16f57a	-0.0092138
34	0x3e6681e9	0.22510494
35	0xbd411bbf	-0.0471456
36	0xbe95a43f	-0.29226872
37	0xbe8bc1bd	-0.27296248
38	0x3de92ecf	0.11385881
39	0x3dcf934d	0.10135517
40	0x3d1d5824	0.038414136
41	0x3c715994	0.01473083
42	0xbe746c47	-0.2386943
43	0xbedc148d	-0.4298443
44	0x3e5cc1c8	0.21558297
45	0xbeb8f8fa	-0.36127454
46	0xbe3ef223	-0.18647055
47	0xbe9de676	-0.3083989
48	0xbe73309f	-0.23749016
49	0xbdfef30c	-0.12448701
50	0xbe6c52cd	-0.23078461
51	0x3c883bde	0.01663011
52	0x3d22d17a	0.039750554
53	0x3df0bbb4	0.117545515
54	0x3da8ae9a	0.082364276
55	0xbe9a223f	-0.30104253
56	0x3e65f091	0.2245505
57	0x3d323c06	0.043514274
58	0xbdbf6a79	-0.0934648
59	0xbe02c9ee	-0.12772343
60	0xbdbabbd8	-0.091178596
61	0xbdadc8a8	-0.08485538
62	0xbdbebef9	-0.09313769
63	0xbebebae0	-0.3725195
64	0x3e015920	0.12631655
65	0xbdfa2670	-0.122143626
66	0x3d6a4155	0.05719121
67	0xbc344ae0	-0.01100418
68	0xbe267466	-0.1625534
69	0x3e8ac6ba	0.2710474
70	0x3e06f542	0.13179496
71	0x3c780dc5	0.015140002
72	0xbe8794d6	-0.2648074
73	0x3ea2ea92	0.31819588
74	0xbdbe040f	-0.09278118
75	0x3e3935c3	0.18086915
76	0x3e6b57d5	0.22982724
77	0xbd1ee00c	-0.038787887
78	0x3d07f8b7	0.033196177
79	0xbec5c80b	-0.38629183
80	0xbe9c1b37	-0.30489513
81	0xbee4e3d0	-0.44705057
82	0x3d0e0e05	0.03468134
83	0x3b2ef58d	0.0026696653
84	0x3d896896	0.06709401
85	0x3e124f38	0.14288032
86	0x3e88594e	0.26630634
87	0xbe55ef99	-0.2089218
88	0x3eccb224	0.3997966
89	0xbe510b55	-0.20414479
90	0xbd85ff42	-0.06542827
91	0x3e2b2ef7	0.16717134
92	0x3dbd4610	0.09241879
93	0xbd007446	-0.031360887
94	0xbe153e94	-0.14574653
95	0x3d686ba8	0.056743294
96	0xbdf6eed4	-0.120572716
97	0x3d8229e5	0.06355647
98	0xbe3750b6	-0.17901883
99	0xbe43e0a8	-0.19128668
100	0xbe2da050	-0.16955686
101	0xbe8b9cb7	-0.27268
102	0xbe83e70e	-0.25762218
103	0xbdcb56a5	-0.099286355
104	0x3e2761a0	0.16345835
105	0x3c8d6759	0.017261194
106	0xbe4d8c95	-0.20073159
107	0xbd9df69d	-0.077130534
108	0x3e4d6837	0.20059286
109	0xbe5199cf	-0.2046883
110	0xbe3afc1f	-0.18260239
111	0x3d5a43f6	0.05328747
112	0x3d7995f2	0.060934015
113	0x3e1ca2f1	0.15296532
114	0xbe9d8905	-0.307686
115	0xbdb39923	-0.08769443
116	0xbe202347	-0.15638457
117	0x3e61f2ae	0.22065231
118	0xbf004828	-0.501101
119	0x3dfabf2b	0.12243494
120	0x3dc1cb6b	0.09462627
121	0x3e4e10e8	0.20123637
122	0x3d20dd14	0.039273337
123	0xbe381a7a	-0.1797885
124	0x3d86b392	0.06577219
125	0x3d5ff9b8	0.05468151
126	0xbd2dc291	-0.04242188
127	0x3d803c35	0.062614836
128	0xbc90119a	-0.017586518
129	0xbc9b2446	-0.018938195
130	0xbe911d45	-0.28342643
131	0x3ea4dd34	0.32200015
132	0x3e6a86c1	0.22902967
133	0xbd58e134	-0.052949145
134	0xbcdfbffd	-0.027313227
135	0x3cf36bbc	0.029714458
136	0xbe880507	-0.26566336
137	0x3a859a5d	0.0010193099
138	0x3e0bc400	0.13648987
139	0x3e94ec46	0.29086512
140	0xbe753b5c	-0.23948425
141	0xbe756e7d	-0.23967929
142	0xbf7a6d1b	-0.9782273
143	0x3ccff42b	0.025384983
144	0xbe4a7aab	-0.19773357
145	0xbe04b9c0	-0.12961483
146	0x3cde347e	0.02712464
147	0xbe0d4b6b	-0.13798301
148	0xbe9b0efb	-0.30284867
149	0x3d0cd9e4	0.034387484
150	0x3df6e0e4	0.12054613
151	0xbe4d80f3	-0.20068721
152	0x3e21d91a	0.15805474
153	0xbe5c4723	-0.21511512
154	0x3e4252ee	0.18976948
155	0xbea07670	-0.3134036
156	0x3d59cf08	0.053175956
157	0xbe47c708	-0.19509518
158	0xbd188311	-0.03723437
159	0xbe887b05	-0.26656356
160	0xbd9a1856	-0.07524173
161	0x3d87d2b8	0.06631988
162	0x3ebc142f	0.3673415
163	0xbdbb470e	-0.09144412
164	0x3e8f3339	0.27968767
165	0x3e39373b	0.18087475
166	0x3de89304	0.11356166
167	0xbea98923	-0.3311244
168	0x3dc3fcef	0.09569728
169	0xbd52fd84	-0.051511303
170	0x3df97522	0.121805444
171	0xbdb9251e	-0.09040283
172	0x3e82b8ed	0.25531712
173	0x3ea04c85	0.3130838
174	0xbcc65c36	-0.024213891
175	0x3e3101f9	0.17285909
176	0xbde0c958	-0.10975903
177	0xbe888d4c	-0.266703
178	0x3dfee976	0.12446873
179	0x3ceedcd3	0.029158032
180	0x3d5df0f4	0.05418487
181	0xbe668781	-0.22512628
182	0xbe0c36d3	-0.13692789
183	0x3d3d9c00	0.04629135
184	0x3de4c592	0.11170496
185	0x3e1ed7c1	0.15511991
186	0xbe206b98	-0.15666044
187	0xbe43ce09	-0.19121565
188	0x3d8f09db	0.06984302
189	0xbdd4b98d	-0.103869535
190	0xbed00de0	-0.40635586
191	0xbf01e5bf	-0.5074119
192	0x3c307572	0.010770189
193	0x3d09a576	0.03360506
194	0x3a9a31a0	0.0011764057
195	0x3e3f9b7b	0.18711655
196	0x3d7becb6	0.061505042
197	0x3da7d1f6	0.08194344
198	0x3e0275f4	0.12740308
199	0x3daea4cd	0.08527527
200	0x3e820a16	0.2539832
201	0x3e860ca6	0.26181525
202	0x3e795f4a	0.24352756
203	0xbe8c547b	-0.27408203
204	0xbdf3f8bb	-0.11912676
205	0x3ee590b6	0.44836968
206	0xbdc4ce74	-0.0960969
207	0x3d4c1dd9	0.049833152
208	0xbd3009a8	-0.04297796
209	0x3e0527fd	0.13003536
210	0xbdfd7e32	-0.123775855
211	0x3db1d28b	0.08682736
212	0x3dc33479	0.09531493
213	0xbd83ae14	-0.06429687
214	0x3dfaa1cb	0.12237891
215	0xbe13b28c	-0.14423579
216	0x3dfca019	0.12335224
217	0x3d1538d8	0.036431164
218	0xbe01674c	-0.12637061
219	0x3e380c5a	0.17973462
220	0xbe65003b	-0.22363369
221	0xbdb4dbc6	-0.08830981
222	0xbe9a752c	-0.3016752
223	0xbe118624	-0.14211327
224	0xbe3b7bc2	-0.18308929
225	0xbea6c189	-0.3256953
226	0xbe4a3925	-0.19748361
227	0xbf15011f	-0.58204836
228	0xbe98eeb5	-0.2986962
229	0x3c4d523a	0.012531811
230	0xbd2f556f	-0.042806085
231	0xbe746c13	-0.23869352
232	0xbe1ef3d5	-0.15522702
233	0xbd851c09	-0.06499488
234	0x3c44cb22	0.012011321
235	0x3cb2a3b1	0.02180657
236	0xbf366040	-0.71240616
237	0xbe18f223	-0.14936118
238	0x3c81dc0c	0.015851997
239	0x3ea2240c	0.31668127
240	0x3e0d090a	0.1377298
241	0xbdbe13de	-0.09281133
242	0xbd7de38b	-0.06198458
243	0xbd8d9292	-0.06912722
244	0x3dc00808	0.09376532
245	0x3de14d3d	0.1100106
246	0xbd55aa88	-0.052164584
247	0xbe2998b1	-0.16562153
248	0xbd7c1692	-0.061544962
249	0x3d276263	0.040865313
250	0x3dcdef1c	0.10055372
251	0xbd8a8d55	-0.06765238
252	0x3eb74324	0.35793412
253	0xbdfd2b66	-0.12361793
254	0xbec4d495	-0.38443437
255	0xbf052f01	-0.5202485

head.0.bias f4 [64]
0	0x3e2fe715	0.17177995
1	0x3d0b2a7a	0.033976056
2	0x3ed2c9cb	0.4116958
3	0xbd9147a4	-0.070937425
4	0x3e63e63a	0.22255793
5	0xbab376bb	-0.0013692001
6	0xbdca7bf7	-0.09886926
7	0xbbde6057	-0.006786387
8	0x3cc7ce91	0.02439049
9	0xbe1be5e3	-0.15224414
10	0x3e2681e4	0.16260487
11	0xbe007cda	-0.12547627
12	0x3ea719b5	0.326368
13	0x3c46394d	0.0120986225
14	0x3e8c9082	0.27454
15	0x3e34c9b3	0.17655067
16	0x3bf52531	0.00748124
17	0x3e6098c8	0.21933281
18	0x3e084395	0.1330703
19	0xbdc311f8	-0.09524912
20	0x3e3540c7	0.17700492
21	0xbb2fae30	-0.0026806705
22	0xbd84d004	-0.06484988
23	0xbd94f744	-0.07273725
24	0x3d5a88d7	0.053353157
25	0x3d373e34	0.044737056
26	0x3e92a896	0.28644246
27	0x3db99953	0.090624474
28	0x3e443939	0.19162454
29	0xbc8bc72e	-0.01706275
30	0x3e748e40	0.23882389
31	0xbdde448c	-0.10852918
32	0x3e8c8a78	0.27449393
33	0x3d8bc20c	0.06824121
34	0x3e9f60f0	0.31128645
35	0x3d9fed90	0.07808983
36	0xbbb0235f	-0.0053753103
37	0x3e8530c9	0.26013783
38	0x3e6f1646	0.2334834
39	0x3e65fd22	0.22459844
40	0xbd7843dd	-0.060611594
41	0x3b7d6413	0.0038664385
42	0x3e321768	0.17391741
43	0x3ecb56e4	0.3971473
44	0xbe3e7751	-0.18600203
45	0x3d2681ac	0.04065101
46	0x3dccdda4	0.10003212
47	0x3dda173c	0.10648963
48	0xbe13b865	-0.1442581
49	0xbda6b0a1	-0.08139158
50	0xbce2803f	-0.027649043
51	0xbd141085	-0.036148567
52	0xbafe5a5c	-0.0019405591
53	0x3c08fe17	0.008361361
54	0x3ea4c32a	0.32180148
55	0x3e016878	0.12637508
56	0xbd84476d	-0.06458936
57	0x3ea76b76	0.32699174
58	0x3d2e5592	0.042562075
59	0xbd1845bc	-0.03717588
60	0xbdfa4678	-0.12220472
61	0x3deb83e0	0.114997625
62	0xbbb8a79d	-0.0056352154
63	0x3d879913	0.066209935
